model_m1.ckpt (torch_old, 150404 bytes, 10 tensors)

layer1.0.weight f4 [16, 3, 3, 3]
00000000: dfe9 f0be 80de 183f 7058 fc3c 1686 34bf
00000010: 2d0f 38be 2adc 483e 2ec5 7dbd acfb 44be
00000020: 4feb c0be baf3 b6bd e5ac 863d 2f37 a03e
00000030: 5ee1 9fbd e913 60be 8d1c 1c3f 8a77 893e
00000040: 5014 35be 4223 6c3e e3d3 1c3d db52 11be
00000050: 712d 84bd d993 75be 44e0 b73e 4eec c33d
00000060: 71c2 b33e d418 b8be 1b90 0f3e cc14 8dbd
00000070: 943e c83e 492e c03e 8dbd 82be 9188 25be
00000080: e35a a43d 7489 2f3c ba63 94be b6dd 543e
00000090: 126f 763e 8040 0f3e 94d1 80be f240 47bd
000000a0: 253e 373e 5f29 cfbe 56a7 a03e 50a3 edbd
000000b0: a519 b63e d2dd 013d 646c a9bd c602 c6bd
000000c0: 3c22 2f3d f11d 0dbe b851 17bf b3da 89be
000000d0: ce4e d13e 484e 203e c5a2 18be 9d30 b73e
000000e0: f682 e33e adc1 47bc 1380 37be 6964 91bd
000000f0: 1e41 82bd 537f 543e 378c d4be 70d7 06bf
00000100: bca4 0d3f 8605 ee3e fd83 573e b436 09bf
00000110: cda3 9dbe f768 303e 7b89 9fbe e618 053e
00000120: 4265 8d3e eda5 00be 4ed8 0abf 31e8 a5be
00000130: 6311 0d3e 97a9 94bd ba9e 8f3e 48dc 4fbd
00000140: ee17 fd3e ae2d 163e d050 283c 63da fe3d
00000150: f1c1 f03d 55fb 4e3f f136 8bbe 9584 ac3d
00000160: ed88 2a3e 1c23 f73c 9480 cfbd 3a35 76be
00000170: e352 193e 7412 3ebf ffff 8b3e 7236 7dbd
00000180: b5d9 51bf c3ee b13e 227d 26bf 81a8 72be
00000190: 7618 0bbe e9bd 213e 6f00 593e 4b95 89be
000001a0: 84b8 183f 7765 80be a71f 32be b14d 2a3f
000001b0: 4778 073f 62f6 abbd 2f92 27be 8ba5 723d
000001c0: 123b 85bd 121f c1bb 1bf2 ee3d 0a6a b13d
000001d0: 8a7f 07bf 5d88 943e 06d9 7c3c bfe0 3e3e
000001e0: 7b0f 46be 6d82 c6bd 1c6a c1be 503e afbd
000001f0: 64ae 28be 5503 953d c45d ba3d 63bf 8a3d
00000200: 9beb aa3d 69bd 7cbe 852f 633e 5284 6ebe
00000210: 2d44 23bd 2735 323f 4549 61be d3ff 903e
00000220: 36ac f03d bf68 133e fffb 14be 22cf e03d
00000230: 23cf 05be 6364 26bf b759 043e e4a1 ce3d
00000240: 12f9 8abe dfb1 23bd aac9 af3e cb85 12bf
00000250: a278 bebd df90 2f3e a5c7 9abe a4eb b63d
00000260: e117 a73d 78e8 63be 1a6d 7fbe 159b d83d
00000270: 03c0 11bf ec04 8c3d 2d24 edbe 28ea 683e
00000280: 2766 e13e 76c6 3e3e 58a9 f9bd 2fd3 2fbe
00000290: b81a f7be 09a6 743e c31e 46bd a5be 623d
000002a0: 05a3 973e 3bf8 9a3e 6701 e5bd 532d 753e
000002b0: 2467 663e 2eb6 ed3d 4bd9 213e 0a6a edbe
000002c0: 55cd 43bd 517d b23e 043c 22bf 5186 b4bd
000002d0: 27ea bebe 4440 bebe 421d 0f3f 3009 1b3e
000002e0: 0157 ccbe 0772 013e 537d 083f ed3b 84be
000002f0: 1b09 2a3e 173b cbbd 7029 b8bd 02ed a7be
00000300: 812c 443e a98d 0dbf f37a 00bf 6642 9e3c
00000310: bb35 363e e231 f03e f0e0 ac3e dabd 913e
00000320: 8b2b 5dbe 774b 9f3e da3b 413b b9a8 0f3e
00000330: ecc7 ddbd eb6e 5c3d 0462 53be 62a0 4a3e
00000340: fa92 1e3e 8cd7 043e 3db7 cf3e 7748 1fbe
00000350: a9d4 6cbd 3e1d 523d f600 313e 0e0b 57bc
00000360: a729 9abe 0a8c 30bd 7233 a33d ad24 02be
00000370: 499a 33bf 78fb 8c3e ec52 5b3e 7836 0f3e
00000380: 24f9 a53e 8e8e 7fbb 094c bdbe 0d99 513e
00000390: 63cf 50be c930 dabe 6d2f 443e e2a3 883e
000003a0: b9cc 81bd f921 213f ee34 b93e 4c03 7ebd
000003b0: 87c1 963e 9d3b 96bc 2a12 03bf 390d 0b3d
000003c0: c405 113e 2b8d 6ebe 1073 2ebe 2238 0dbe
000003d0: 5644 b0be b92b 543e 6bd1 dabd d846 e4be
000003e0: 69ee 703d 25c8 b03e 54a7 c83e 4569 023d
000003f0: 000f 12bd 8645 00bf b7aa 113d 569e ba3c
-0.4705343 0.5971451 0.030803889 -0.705171 -0.17974539 0.19615236 -0.061955623 -0.1923663
-0.37679526 -0.08933206 0.06575946 0.31292102 -0.07806657 -0.21882595 0.60981065 0.26849014
-0.1768353 0.23060325 0.03828801 -0.14191763 -0.0645398 -0.2398218 0.3591329 0.09566556
0.35109285 -0.35956442 0.14019816 -0.06888732 0.39110243 0.37535313 -0.2553524 -0.16165377
0.08025148 0.010713924 -0.28982335 0.20787701 0.24065807 0.13989449 -0.25159895 -0.04864592
0.178948 -0.4046125 0.31377667 -0.11603415 0.3556644 0.031705685 -0.08272627 -0.09668498
0.042757258 -0.13780953 -0.5910907 -0.26924667 0.40880436 0.15654862 -0.14905842 0.35779276
0.44435853 -0.012192172 -0.1791995 -0.0709923 -0.06360076 0.20751695 -0.41513225 -0.5267248
0.5532949 0.4648859 0.21046443 -0.53599095 -0.30789033 0.17227541 -0.31159577 0.12997779
0.27616316 -0.12563296 -0.54236305 -0.3240371 0.13776164 -0.07258909 0.28050786 -0.050747186
0.4943232 0.14665863 0.010273173 0.12443998 0.117557414 0.8085225 -0.27190354 0.084237255
0.16653796 0.030168109 -0.10131946 -0.24043742 0.14973025 -0.7424691 0.27343747 -0.0618195
-0.8197282 0.34752473 -0.6503469 -0.23697092 -0.1358355 0.15795101 0.21191572 -0.26871714
0.5965655 -0.25077412 -0.17394887 0.665248 0.52917904 -0.08396603 -0.16364358 0.059239905
-0.065054074 -0.0058935964 0.11667272 0.086628035 -0.52928984 0.29010287 0.015432602 0.18640421
-0.19341843 -0.096928455 -0.37776268 -0.08556807 -0.16472775 0.07276026 0.090999156 0.06774785
0.083457194 -0.24681629 0.22186096 -0.23292664 -0.03985994 0.69612354 -0.22000606 0.28320178
0.11751597 0.14395426 -0.14549254 0.109770074 -0.13067298 -0.6499693 0.12924848 0.10089472
-0.2714315 -0.039964553 0.34333545 -0.572354 -0.09300353 0.17145108 -0.30230442 0.08931664
0.081588514 -0.22256649 -0.24943963 0.105764546 -0.5693361 0.06836876 -0.46316662 0.22745574
0.4402325 0.18630394 -0.12190503 -0.17170404 -0.48262572 0.23891462 -0.04836918 0.055357594
0.29616562 0.3026751 -0.11181908 0.23943071 0.22500283 0.11607014 0.15805547 -0.46369964
-0.04780324 0.34861234 -0.63372827 -0.08814681 -0.3728802 -0.37158406 0.5590402 0.15140224
-0.3991013 0.12641154 0.5331623 -0.2582697 0.16605036 -0.0992338 -0.089922786 -0.3279801
0.19157602 -0.5529428 -0.50187606 0.01931877 0.17793934 0.46913058 0.33765364 0.28465158
-0.21598642 0.31112263 0.0029485137 0.14029206 -0.10829148 0.053816717 -0.20642859 0.19787744
0.15485755 0.1297285 0.40569487 -0.15554987 -0.057819996 0.05129742 0.17285523 -0.013125194
-0.30109903 -0.0431023 0.07968797 -0.12709303 -0.70157295 0.27535605 0.21418351 0.13985622
0.32416642 -0.0038994881 -0.36972073 0.2046854 -0.20391612 -0.42615345 0.19158716 0.26687533
-0.06337876 0.62942463 0.36173195 -0.062014863 0.29444525 -0.018338973 -0.5119959 0.033948157
0.14162356 -0.23296039 -0.1703608 -0.13790944 -0.34427136 0.20719804 -0.106844746 -0.445853
0.058821116 0.34527698 0.3919016 0.031838674 -0.035658836 -0.50106084 0.035563197 0.022780579

layer1.0.bias f4 [16]
00000000: cfef 783d 6e1c c23b 387c c33d a8c0 003e
00000010: a906 c63a 6029 0bbd 38e7 2e3d 5daa fe3d
00000020: c65a 233e a2ec 0ebd 0481 ef3d 93d5 c23d
00000030: e8b2 80bd aec1 b33d e4df 5bbe a476 153e
0.060775574 0.0059237992 0.09545177 0.12573493 0.0015108186 -0.033975005 0.042700976 0.12434838
0.15952596 -0.03489364 0.1169453 0.09513392 -0.06284124 0.08777176 -0.21472126 0.14596039

layer1.2.weight f4 [16, 16, 3, 3]
00000000: 2a2f ad3d 8a52 a6bd ee83 9f3d 3e04 3f3e
00000010: a4ef 31bd 4e5b 123e e8ca a2bd 19f4 683a
00000020: ca16 0fbe dda7 883c 49ca 083d 42dd 923c
00000030: 5c10 d43d 09a6 8dbd 1fdd 65be 7e7a 553e
00000040: d057 6fbe 60ef 9e3d 4b3e 003d 55c6 38be
00000050: 74d8 58bd 60fa 283c b524 45be 4b04 32bd
00000060: 6d36 a83d a018 5dbe c8f2 243e 978d 7c3e
00000070: bba8 e3be b5e2 413e 79e2 743d 6b24 29be
00000080: 89e4 c43d ad1b f03c 441c 733d cf00 113d
00000090: 0df1 883e f9d9 88bd 1750 54be e2b1 39be
000000a0: 10ba 6ebe ed93 4c3e fb73 673e a892 ce3c
000000b0: 3ef5 82be aeb1 873e 40cc adbe e1d4 0d3e
000000c0: 579a 983e 81b0 0bbe 7854 3d3d 1b6f 1a3d
000000d0: bfea 57be b462 11be 7ec1 bebe ff60 323e
000000e0: 5cb5 a9be e328 ab3d 6e26 1d3e 9581 19be
000000f0: 8b2e ccbd 760c e13d 33f0 2dbe 3725 1cbd
00000100: d82c a03c 82cb 2cbd 867b ea3d f176 933e
00000110: 13a0 55bd 1df3 edbd 9420 ee3d 93d5 e4bd
00000120: d492 87be ebed c33e 703b e1bb bc40 98be
00000130: 9ba6 263e 8d81 12be b0b4 32be 004c 323e
00000140: 54fd 8ebd c811 efbd 5a1d 8abc d64c 163e
00000150: 635d 80be aa07 bfbd d77b c03d 7fb0 87be
00000160: 6b7c 5e3e 4f24 193c 50bd 0f3e 5f06 0cbd
00000170: 6f9c 94bd 32e2 af3e 33cb 7dbe 5b48 173d
00000180: c818 d4bd 53ee 59be b59f 763d 21e6 e83d
00000190: 1826 81bd 9632 963d 0d82 b5bd 7ae0 b8bd
000001a0: dae8 aa3e 8339 a7bd 4309 32bd 7c8c 80bd
000001b0: 36d5 1a3e ced4 383e cec0 60bd cce9 c7bd
000001c0: 8404 3dbe 6569 7fbd 3db9 223e 6c6a 9fbd
000001d0: 4005 513c 4582 803e b4d6 65be 6b28 43bc
000001e0: fcc1 563e fefb 7fbe 814c 0c3e 7cd1 f93d
000001f0: d836 debe 9935 233e c032 213d e727 d53d
00000200: 246e 00bd 9aa5 dabc 79d2 7a3d e61e aabd
00000210: 2a98 3f3d af3b afbd 0a4d c93d 6119 4b3d
00000220: dacb 86bd 84e1 49be 1f1d 8abe e91c 913d
00000230: b853 c3bd f4b4 233e 0e34 003e 4739 dcbd
00000240: 1ad7 673e 719a 09bd 72d8 d0bc 3c07 7cbe
00000250: 5821 56be 2c1b 80bd 7345 60be 9f03 973d
00000260: b886 853e d965 503e fb01 52bc 3c2d 903e
00000270: 89b3 2fbd 77cd 993e 53bf 6fbe 5792 983e
00000280: 5d44 19be 8b95 c4be f017 97bd bebf 20bd
00000290: 3091 43be 53f1 213e a0dc f3bd 954b d2bc
000002a0: 5ec1 fd3d 21a3 85be 7f97 e3bc 916a 59be
000002b0: 5f75 20bd f19b a83d 6d5c 7cbe d334 8a3d
000002c0: 5018 833d f421 1dbe 4c47 293d a488 4b3e
000002d0: 60e8 803d 731d c6bd ccfc f1bd 56c7 77be
000002e0: 7ead cb3d baac 9d3e 5b03 35be ce75 94bd
000002f0: 7136 6f3d a806 71be c80f 163e 88f3 503e
00000300: c7b6 5a3d a354 02bd 6a7e 9d3d 1c2c 3c3e
00000310: 3b31 243e f650 5d3d a1c8 993d 6d31 403d
00000320: 9398 ccba 9ae6 80be 5e8d 853c 26bf 02be
00000330: 5309 7fbd 9672 babe 7e5f d2bd 3f4f 51bc
00000340: 61c5 6dbd dee5 1f3e 2e40 073e 885e 423c
00000350: 5cd9 abbd 25b2 343e 4602 26be 581d 703d
00000360: 840f 65be 660e b93c 7963 c4bc 2106 3ebe
00000370: 72e1 46be b27c 353e 7fbc 933e 3abe 5d3e
00000380: d019 dbbd 5d1a 833c 32c1 aebe ef57 2c3e
00000390: 3570 1ebe 58b7 1dbd 19d5 6f3e 9cc8 81be
000003a0: cff4 9b3e c189 1b3d 582c c9bd a8ac fabd
000003b0: 8e48 0fbe 199e c9bd 01f2 31be 7e93 d83d
000003c0: de2d c5be c85f 633d f561 293e 8783 b2be
000003d0: 70ae 97be 17de 053d 5c48 7cbe 9dc3 9e3e
000003e0: aa91 f5bc 59de c73e b226 043f 5353 cabe
000003f0: 791c 2f3e e829 793e a05e 973d cd67 593e
0.084562615 -0.08121212 0.077888355 0.18653962 -0.04344143 0.14292642 -0.079488575 0.0008886471
-0.13973537 0.016681606 0.03339604 0.01792777 0.10354683 -0.06916434 -0.22447632 0.20847508
-0.23373342 0.07760501 0.031309407 -0.18044408 -0.0529408 0.0103136 -0.19252284 -0.043461125
0.08213506 -0.21591425 0.16108239 0.24663387 -0.4446467 0.18934138 0.059786294 -0.16517799
0.09613902 0.029310072 0.059353128 0.03540116 0.26746407 -0.066822 -0.20733677 -0.18134263
-0.23313165 0.19978304 0.22602837 0.025216416 -0.2557773 0.26502746 -0.33944893 0.13850738
0.29805252 -0.1364155 0.046223134 0.037703615 -0.21085642 -0.14197809 -0.37256998 0.17419814
-0.3314618 0.08357408 0.15346691 -0.14990838 -0.09969815 0.10988705 -0.1698616 -0.03812143
0.019552633 -0.042186268 0.114493415 0.28801683 -0.05215461 -0.11618636 0.116273075 -0.111735485
-0.26479208 0.38267455 -0.0068735406 -0.29736888 0.16274492 -0.14307232 -0.1745174 0.17411804
-0.06981912 -0.116733134 -0.016859699 0.14677748 -0.25071248 -0.09327634 0.093986206 -0.26501843
0.21727149 0.009347036 0.1403706 -0.034185763 -0.072564 0.3435226 -0.24784546 0.036934238
-0.10356289 -0.2128232 0.060210902 0.113720186 -0.06306094 0.07333867 -0.08862696 -0.090271905
0.33380777 -0.08165266 -0.043465864 -0.06276795 0.15120396 0.18049929 -0.054871373 -0.0976139
-0.18458754 -0.06235637 0.15890975 -0.0778397 0.012757599 0.25099388 -0.22445184 -0.011911492
0.20972437 -0.24998471 0.13701059 0.12198159 -0.43401217 0.15938415 0.03935504 0.104080014
-0.03135504 -0.026690293 0.06123588 -0.08306675 0.046775974 -0.085563056 0.09829147 0.04958475
-0.0658185 -0.19714934 -0.26975343 0.07085592 -0.095374525 0.15986997 0.12519857 -0.10753112
0.22640648 -0.033594552 -0.025493834 -0.24612135 -0.20911157 -0.062551826 -0.21901493 0.073737375
0.26079345 0.20351352 -0.012817855 0.2815951 -0.042895827 0.3003957 -0.23412828 0.29799148
-0.14967485 -0.38395342 -0.073776126 -0.03924536 -0.19098353 0.15814714 -0.11907315 -0.025670806
0.123903975 -0.2610102 -0.0277822 -0.21232058 -0.039174434 0.082328685 -0.24644633 0.06748357
0.064011216 -0.15344983 0.04132776 0.19876343 0.06294322 -0.09673586 -0.11815795 -0.24197134
0.099452004 0.30795842 -0.17677061 -0.07249032 0.05840153 -0.23537695 0.14654458 0.204054
0.053396966 -0.031818997 0.07690127 0.18376201 0.16034405 0.05403229 0.0750897 0.046922136
-0.0015609436 -0.25175935 0.01630276 -0.1276823 -0.06226475 -0.36415547 -0.1027212 -0.012775241
-0.058049563 0.15615031 0.13208076 0.011863358 -0.083910674 0.17646082 -0.16211805 0.058621734
-0.223692 0.022589874 -0.023973214 -0.18557025 -0.19421938 0.17723349 0.2885475 0.21654597
-0.10698283 0.016003782 -0.3413177 0.16830419 -0.15472491 -0.03850493 0.23421134 -0.25348365
0.30460212 0.03797317 -0.09822911 -0.12239963 -0.13992521 -0.09844608 -0.17377473 0.10575007
-0.38511556 0.055511266 0.16541274 -0.34865972 -0.29625273 0.032682505 -0.24636978 0.31008616
-0.029976685 0.39036825 0.51621544 -0.39516696 0.17100705 0.24332392 0.07391095 0.21231003

layer1.2.bias f4 [16]
00000000: 7469 633d 70cb 8cbd 2e05 ecbd 2743 3a3e
00000010: 6f02 79be b45f 8abd 04f2 b4bd 7d76 063d
00000020: 0bd7 5b3c 3d58 273e d80a 753e 2fce 013e
00000030: 3a47 aabd 9127 5fbe 0fe0 b53b b18f e3bc
0.05552049 -0.0687474 -0.115244254 0.18189679 -0.24317335 -0.06756535 -0.08835223 0.032827843
0.013417969 0.16342254 0.23929918 0.12676309 -0.08314367 -0.21792437 0.0055503915 -0.027778478

layer2.0.weight f4 [32, 16, 3, 3]
00000000: e61e 703d 66a8 debd 85b8 ba3e 1ccd 34be
00000010: 2b90 e8bd 4dfb 31bd 6aa1 23be 304d cbbd
00000020: 3888 cfbe 0816 183d d3f3 c73c 3742 943e
00000030: 9888 28be 042f c83b 8713 cd3d 68ed 80bd
00000040: 68d7 fdbd a732 90bd c341 7cbe 304a c0be
00000050: bc8c 9cbe 4184 a43a 7740 bdbe b661 ddbe
00000060: c1b6 a1be fe4a 12be ad0a 1cbe 6451 f63d
00000070: 35ad df3d da25 563e d7fd 913e e888 c7bd
00000080: 45d3 98bd 7d19 993e fe49 1f3d a9b7 203e
00000090: 2e7d 61bd b3ff ed3c 019e b43d 7d8c 31be
000000a0: a011 1bbe 85ec d73c 87a5 263c 6f40 a33d
000000b0: fcb9 043e 9192 26be c7d8 5fbe ce8b edbd
000000c0: 3018 993e 8fcb 8b3d 3eac 70be 711f 113e
000000d0: 8444 dfbd e043 0cbe 0d45 62be 9d14 3b3d
000000e0: 945b 86be cc44 b1bd 37bb 8cbe c373 39be
000000f0: 7cbd 683d 8197 76bd 2971 b53d 81ec 21be
00000100: b10d 723e e9d5 60be 3530 09be 5779 353e
00000110: 48cf 07be 1f00 09bd d676 e1bd 58b7 cc3d
00000120: 7192 223d aba2 8cbd 63f6 70be 8dff 3e3b
00000130: 4e15 6abe cadd 95be ef79 43bd 328d 1cbe
00000140: 95d7 203e e3c9 8e3d f68c 063e 99ae 6b3e
00000150: 4f31 11be 055e de3d 384f 2d3e 93f9 11be
00000160: 88a0 f5bd b684 13be e939 4e3e 82fc 543e
00000170: b8bf d93d 7004 593e 6572 0e3c 3169 dc3d
00000180: 067c ee3d cc87 253e 78ad 85be c7b9 32be
00000190: 2b6f 8f3d c6d4 843e a93a 703e 0444 1cbe
000001a0: bee8 93ba 2731 cb3c b6dc 34be 1f90 44bd
000001b0: dafc 8e3e 0c71 33be 52f6 2a3e 7650 3f3e
000001c0: 69ab cfbd 940c 56be ab05 d3bd 6108 2bbf
000001d0: 0473 7bbe f168 de3d 0b5f 2f3e dfd9 093e
000001e0: f599 383e 8f49 95bd e4e9 73be bf16 92bb
000001f0: 6668 80be 0397 9dbd 0ce5 213e adf8 9cbd
00000200: b91c cbbc 47ee 2abe ebf5 febd 0d4e 9f3d
00000210: 124e 6cbc 9688 14ba 167d a03e fa86 b43e
00000220: ac7b 54bd 6960 e13d 3627 af3d 25e5 5dba
00000230: c329 c2bd d803 be3d e828 8b3e d773 08bd
00000240: c00a 823e d8d0 643e 5536 be3e 7a8c 893e
00000250: d098 3e3c b5aa 063e f78f db3d 571f a53d
00000260: 42ba 383e c5d1 82be 66ec 0b3e fc7d b2bd
00000270: b302 d53d f14f 49be 0aff b33d 7b2c 803e
00000280: 33f9 5a3e 8bf9 9e3c 9056 3b3d 99ae 96bd
00000290: 6048 2a3d e328 2cbc c6cb b93d cce5 6f3d
000002a0: 4a97 e03c b002 183e 54c5 89bd fa68 0d3e
000002b0: f290 04bd eedf 623e cfeb 33bb 9dbb c43d
000002c0: 5ae5 84be 8ea6 3bbd 77b7 473e b881 4d3c
000002d0: 0453 4e3e 93e4 c23d 8d5f 1bbe 9c9a 96bd
000002e0: 529f 963d d26b 443d ef23 cebd 523c eb3d
000002f0: d113 2dbe a264 413d 36c0 923b d3f2 3b3e
00000300: f841 5dbe 9f55 9e3e 1794 48be e468 a53d
00000310: 2696 59bc 955b 39be 872c 80be 60e6 363e
00000320: 5cf4 94bd d2ad c63c f6e7 8bbd 5624 5a3e
00000330: c071 0fbe 6de2 9bbd 1044 a1bd 130a 13be
00000340: 6758 08be 94da 793d 2880 283e af70 e8bd
00000350: 3d88 37bd e45e 1ebe b84b 2d3d c587 34bd
00000360: e474 d63d 3e85 a83e 6c5d babd 2fce bf3d
00000370: 44d4 58bb 639c 05bf e047 823a bed7 873e
00000380: 5b9e 9abe 4a3c 8abd a95d 493e 9f1d ac3d
00000390: 20fe 233e 9c58 0c3d c4f7 3ebe cdc7 febd
000003a0: 3c9e 86be 97e8 3e3d 6c5e 2bbb e853 a1bd
000003b0: aae3 d53d 8d1e 0c3d 92e9 2d3d 0e89 a6bd
000003c0: 4b8b 1f3e b1ed 833e 963f 473d bbd9 57bd
000003d0: 1440 08be 3f23 e7bd e499 133e 9f52 9e3e
000003e0: 434e 88bd 1004 61be 15e8 363e 2d23 72bd
000003f0: d046 373d bb95 f23d 818d 0d3e a41a 2d3e
0.058623217 -0.10871963 0.36468902 -0.17656368 -0.11355623 -0.04345255 -0.15979543 -0.09926832
-0.40533614 0.037130386 0.024408257 0.28956768 -0.16458356 0.0061091203 0.1001349 -0.06295282
-0.12394601 -0.07040911 -0.24634461 -0.375566 -0.30576122 0.0012551622 -0.36963245 -0.4323861
-0.31584743 -0.1428642 -0.15238447 0.12027243 0.109217085 0.20912877 0.28513977 -0.0974291
-0.074621715 0.2990226 0.038888924 0.15695061 -0.05505102 0.029052591 0.08819199 -0.17338748
-0.15143442 0.026357898 0.010171301 0.07971274 0.12961572 -0.16266848 -0.21860038 -0.11598931
0.29901266 0.06825935 -0.23503205 0.1417215 -0.1090174 -0.13697767 -0.22096653 0.045673955
-0.26241744 -0.086557 -0.27486584 -0.18110566 0.05682133 -0.06020308 0.08859474 -0.15812875
0.23638035 -0.219566 -0.13397296 0.17722069 -0.13262665 -0.03344738 -0.11008994 0.099959075
0.03969044 -0.06866964 -0.23531489 0.002914402 -0.2285969 -0.29270774 -0.047723707 -0.15288237
0.15707238 0.069721006 0.1313971 0.23015822 -0.14178966 0.108577766 0.16924751 -0.14255361
-0.119935095 -0.14406094 0.20139278 0.20799449 0.106322706 0.21193099 0.008694266 0.10762251
0.11644749 0.16165084 -0.2610891 -0.17453681 0.070036255 0.25943583 0.23459877 -0.15260321
-0.0011284573 0.024803711 -0.1766232 -0.047989007 0.27927285 -0.17523593 0.16695526 0.18683037
-0.10140116 -0.20903236 -0.103038155 -0.6680966 -0.24555594 0.1085986 0.171261 0.13462017
0.1802748 -0.07289421 -0.23819691 -0.004458278 -0.2507965 -0.07694819 0.1581003 -0.07664619
-0.02479397 -0.16692458 -0.12449249 0.07778559 -0.01442291 -0.0005666105 0.31345433 0.3525923
-0.051875755 0.11004717 0.08552401 -0.0008464626 -0.09480622 0.09278077 0.27179646 -0.0333136
0.25398827 0.22345293 0.37150827 0.26864988 0.011633113 0.13151057 0.107208185 0.08062618
0.18039802 -0.25550666 0.13664398 -0.08715436 0.104009055 -0.19659401 0.08788879 0.25033936
0.21384124 0.0194061 0.04573685 -0.073575206 0.04157293 -0.010507795 0.0907207 0.05856876
0.02741589 0.14844775 -0.067270905 0.13809577 -0.032364793 0.22155735 -0.0027453785 0.09606097
-0.2595623 -0.045813136 0.1950358 0.012543134 0.20148855 0.09516253 -0.15173168 -0.07353708
0.07354607 0.047954388 -0.100654475 0.114861146 -0.1690209 0.04721511 0.0044784797 0.18354349
-0.21607196 0.309247 -0.19587742 0.08076647 -0.013280427 -0.18101342 -0.25033972 0.17861319
-0.0727317 0.024252806 -0.068313524 0.21302924 -0.14008236 -0.07611547 -0.0787431 -0.14359312
-0.13314973 0.060999468 0.16455138 -0.11349618 -0.04480766 -0.15465885 0.04230854 -0.044074792
0.10471514 0.32914156 -0.0909985 0.09365498 -0.0033085505 -0.5219175 0.0009939633 0.26531786
-0.3019894 -0.067497805 0.19664635 0.08404087 0.1601491 0.034264192 -0.18649203 -0.12440453
-0.26292598 0.046608534 -0.002614881 -0.07877332 0.10443814 0.034208823 0.042459078 -0.0813161
0.1558048 0.25767282 0.048644625 -0.05269788 -0.13305694 -0.112860195 0.14414173 0.3092241
-0.06655552 -0.21974206 0.1786197 -0.059115577 0.044745266 0.11844965 0.1382351 0.16904694

layer2.0.bias f4 [32]
00000000: 79bb 933e 3c69 bfbd fcd6 e53e 9dba 46be
00000010: 87d7 b13d c147 b1bd cffb fc3d d84e cb3d
00000020: 7a7a 45be 732a 793e 60f4 583e 0675 d53d
00000030: b286 ae3c 7162 b3bc 584e da3d d461 92bd
00000040: e391 b83d 33c2 863e c217 d0be 172b ae3e
00000050: c3f1 30be 2b80 2b3e b056 24bd efbc d43d
00000060: 89a0 01be c99a 2d3e aa4d d53d 67f6 a4be
00000070: 4a51 ac3c 64fc 423e 8a6e 99be 0ca2 b73d
0.28853968 -0.09346244 0.44890583 -0.19407125 0.08683687 -0.08656264 0.12352716 0.099271476
-0.19285002 0.243326 0.21186972 0.10422711 0.021304462 -0.021897526 0.10659474 -0.071475655
0.09012201 0.26320037 -0.40643126 0.3401725 -0.17279725 0.16748111 -0.040121734 0.10387599
-0.12658896 0.16953577 0.10415204 -0.3221924 0.021034855 0.19041592 -0.29967147 0.08966455

layer2.2.weight f4 [32, 32, 3, 3]
00000000: 78e7 0d3d d558 283b 610c 093e 6778 2c3e
00000010: f135 99bc feaa ba3d 3ad5 dd3d 8541 b8bd
00000020: ce63 fd3b 7103 223e 713e 103e 6fa3 57bd
00000030: 7a4e b3bd e907 9ebd e0f7 87be f1bc 34be
00000040: dc2a fdbd d5a1 8dbe 1985 aabb 3e54 5f3e
00000050: fb58 7e3d 6cb6 05be 2d1c e63d 013a bf3d
00000060: fd00 2e3e 57df 943e 1982 443e fc41 93bd
00000070: d74c 46be 27a0 3c3d 2d67 33bc ca6f be3d
00000080: 8a63 6e3e ea61 9bbd 9373 163e c5cd fcbd
00000090: 7623 093e b2c8 20be a1e4 06be 1cfb c5bc
000000a0: 2a16 0abe 85a3 e03d a2bc a1bd e927 7a3d
000000b0: 9c0a 2d3e 9499 3c3d b64b dcbd 6b67 05be
000000c0: 620c 8bbd 87ee 7ebd 466e 26bd 59de 4b3e
000000d0: 36e3 19be c077 6fbd fe67 98be 9304 8e3c
000000e0: b729 d53d 4b28 7f3d 6b6f 91bd dde1 78be
000000f0: 4ddd 13be 3d3c 71bd 91a8 733d a1b3 063e
00000100: fab5 46bc 6593 30be 6f0c 5abe 9a09 89bc
00000110: 26f8 73bb 2f3b 4c3e 8807 8a3d fb8e ffbc
00000120: 87a1 4dbe e0f7 2e3e 28aa 873e eb16 993e
00000130: ff00 be3c dd4d 97be 3a1d 8abc 4d8a cbbd
00000140: b8bc a5bc f26a 093e 1d0d a4be 172c 1bbd
00000150: eb7f d7be 7917 66be feba a03e b197 09be
00000160: fa54 c8bd 5850 7ebe 097f f5bd 13b8 c23d
00000170: 59c7 d7bb 0a3e 09be 49a6 bd3d 116a b63d
00000180: 65a2 03be f947 58be b23c e6bc 8ca8 ccbd
00000190: 0db5 5ebd e8a5 bd3d 3732 1f3d 044b 093d
000001a0: 3ae9 bdba 01f5 ed3d f34a 653d b6b8 c4bc
000001b0: 2e6f 653e cd14 e23d a9d4 aabd db2c fe3d
000001c0: 0021 c63d 50d5 4a3e 5918 89be bb82 9dbe
000001d0: 49eb 563d d3cc b83d c341 ec3c abb5 5b3b
000001e0: fd17 6abd 4199 383e 0913 32be aa98 a53c
000001f0: ae98 91bd ae74 563e 15b3 02be 860f 013e
00000200: 8140 cf3d dc9e 903d bbc5 d43d 46df 2bbe
00000210: af60 36be e029 f53c af4d 2e3d 9e25 98bc
00000220: ef90 2abe 4ee3 f5bd c387 cbbd ba67 04be
00000230: 9120 bc3d 8353 d4bd 210d 263d fa11 5cbd
00000240: 5d36 56bd d734 443e 7c41 783d b4fd 903d
00000250: 7703 ecbc b8e8 b2bc 03ce 3bbb 5ee4 3cbe
00000260: d40c 3abc 4952 823d cff2 90bc dc9a 8d3d
00000270: 153f 4fbd 371c 16bd d9b6 9dbd 581f bc3d
00000280: 32c7 a23d 3e2c 0a3e 1116 223d a625 59be
00000290: 9af8 523e 6305 ad3d 9003 98bd 154f 443e
000002a0: ac6e 673c d6ee 2bbd 8be5 b3be 4483 a93d
000002b0: 5559 49be 3f0c 69be d075 433e 2019 b53d
000002c0: 8343 8f3d 142f 1b3e 10fe 33be 43b5 163e
000002d0: 832e dc3d 7e8f 09be ff7a e5bc 1461 573d
000002e0: 104a b73b 8f03 903c 3142 2ebe 2529 053e
000002f0: 3aa6 a33c 72c6 a0bd 4b66 da3c 1574 98bd
00000300: fa3a 24be 216f 11be 755e 033d 6924 193e
00000310: d973 80bc e356 9d3d 0a60 3cbe aa5d 97bd
00000320: a58e 4c3e 4826 cebd 2899 0abc ff18 c03d
00000330: 271e aa3d 14b0 ba3d 773c cebe 3a39 023e
00000340: 302b 16be e36d ac3d bbf7 61be 7ff9 1bbe
00000350: df99 2ebe 9149 663e e838 0d3d ce22 40be
00000360: 894a db3d 9d61 d03d fe34 2dbd f53d 2cbd
00000370: 7fa7 87be 6d35 7a3d 7e9e 20be 3f79 223c
00000380: 9e7f d33c ba1b 7ebe 4ba6 413d dfa4 533d
00000390: 3ff3 56bd 379b 533c e7ef 41bd 1289 253c
000003a0: 98f9 223d 114d 05be e977 d9bd 4cd7 4bbe
000003b0: 3d90 9ebd da3c 9bbc 1dc2 58be 3c27 093c
000003c0: fbbe 273e 1608 9dbc 5251 25be b27a 3f3d
000003d0: eb01 9c3d 38f9 933d f88d d4b9 51a6 133d
000003e0: 579b 05bd 1b6b be3c 0c17 323d 009b 9abd
000003f0: 2623 453d cd30 e03d 60bf 7c3d eb5f ad3d
0.034644574 0.0025687714 0.13383628 0.16842805 -0.01870248 0.091146454 0.10831685 -0.08996872
0.007732845 0.15821625 0.1408632 -0.052646097 -0.087552026 -0.077163525 -0.265563 -0.176502
-0.123616904 -0.2766253 -0.0052038548 0.2180948 0.062096577 -0.1305787 0.11235843 0.09337235
0.16992564 0.29076645 0.19190253 -0.0719032 -0.1936525 0.04605117 -0.010949892 0.09298666
0.23280159 -0.07587035 0.14692526 -0.12343935 0.13392434 -0.15701559 -0.13173153 -0.02416759
-0.13485017 0.10968689 -0.07897307 0.061073218 0.16898578 0.0460449 -0.10756628 -0.13027732
-0.06789471 -0.062239196 -0.04063251 0.19909038 -0.1502808 -0.058463812 -0.2976684 0.017336166
0.10408347 0.062294286 -0.071013294 -0.2430491 -0.14439888 -0.05889534 0.05948693 0.1315446
-0.0121283475 -0.17243727 -0.21293806 -0.016728211 -0.0037226765 0.19944452 0.06739718 -0.031196108
-0.20081149 0.17086744 0.26497006 0.29900298 0.023193834 -0.29551592 -0.01685964 -0.09938488
-0.02023159 0.13419703 -0.32041255 -0.037883844 -0.4208978 -0.22469892 0.31392664 -0.13436772
-0.09781833 -0.24835336 -0.11987121 0.095077656 -0.0065850434 -0.13402572 0.09260232 0.08906949
-0.12854917 -0.21121205 -0.028105114 -0.09993085 -0.054371882 0.0926016 0.038866248 0.033518806
-0.0014489063 0.116189964 0.05597968 -0.024013858 0.22405693 0.11039124 -0.08341343 0.12410899
0.09674263 0.19807935 -0.26776388 -0.30763802 0.05247048 0.09023442 0.028839951 0.003352503
-0.057151783 0.18027212 -0.17390074 0.020214397 -0.071091995 0.20942947 -0.12763627 0.12603578
0.10119725 0.0706155 0.103892766 -0.16784391 -0.1781032 0.029927194 0.042554554 -0.018572625
-0.1665685 -0.120062456 -0.09938004 -0.12930194 0.09185899 -0.10367491 0.040539864 -0.05372808
-0.05229794 0.19160782 0.060609326 0.0707964 -0.028810246 -0.021839485 -0.0028656728 -0.1844649
-0.0113555975 0.06363351 -0.017693905 0.06914303 -0.05059727 -0.036648 -0.07700891 0.09185666
0.0794815 0.1349344 0.039571825 -0.21205768 0.20602646 0.08448293 -0.074225545 0.19170792
0.014125507 -0.04197582 -0.35136065 0.0827699 -0.19662984 -0.22758578 0.1908791 0.08842683
0.06995299 0.15154678 -0.17577386 0.14717583 0.10751059 -0.13433644 -0.02801275 0.052582815
0.0055935457 0.017579822 -0.17017438 0.13003977 0.019976724 -0.078503504 0.026660105 -0.07444016
-0.16038123 -0.14202549 0.032072503 0.14955296 -0.01568024 0.07682588 -0.18396011 -0.07390912
0.1997629 -0.10065895 -0.008459367 0.093797676 0.08306532 0.091156155 -0.40280506 0.12717143
-0.14664912 0.08419397 -0.22067158 -0.15231894 -0.17050885 0.22489001 0.0344781 -0.18763277
0.10707576 0.10174868 -0.042286865 -0.042051274 -0.26494977 0.061086107 -0.1568546 0.009916603
0.025817689 -0.24815264 0.04727773 0.051670905 -0.05247807 0.012915424 -0.04734793 0.010103481
0.039788812 -0.1301768 -0.10618574 -0.19906348 -0.07742355 -0.018949915 -0.21167798 0.008371171
0.16381447 -0.019168895 -0.16144302 0.04674787 0.07617553 0.07225269 -0.00040541566 0.036047284
-0.032618847 0.023244431 0.04347901 -0.07549095 0.048129223 0.10946808 0.061705947 0.084655605

layer2.2.bias f4 [32]
00000000: 2159 13be 889a 473e 8dfd 01bc 8647 f93d
00000010: e682 9fbd 9eda 2c3e a3d4 f73d a527 4e3e
00000020: 6767 cc3d 2a2c dbbd a444 233e 7685 18bd
00000030: 0469 813d d453 6e3c 3733 803e 91ac 0e3e
00000040: c094 f9bc 7f30 373e 615d 853e 9ba1 04be
00000050: 2f82 5abe 4dc2 b43b 6768 4a3e bab2 7d3e
00000060: 2d3e 563e 323b a83c 59c6 403c a302 853d
00000070: 1ed7 853d b25e ea3d 844a 633e 28a6 673e
-0.14389469 0.19492543 -0.007933986 0.12171845 -0.07788639 0.16880271 0.12101104 0.2013231
0.0998066 -0.10701783 0.15944153 -0.037236653 0.06318858 0.014546353 0.25039074 0.13933016
-0.030466437 0.17889594 0.26047805 -0.12952273 -0.21338724 0.0055163265 0.19766389 0.2477521
0.20922156 0.020536039 0.01176604 0.064946435 0.06535171 0.11443843 0.22196394 0.22621977

fc1.weight f4 [10, 2048]
00000000: 7dae 013e bba6 9fbd acf7 7fbd af2c f1bc
00000010: b818 75bd 8c56 bf3d 0335 223d 4037 863e
00000020: 4bf9 51bb a3da ecbd 1881 90bd bd80 c03d
00000030: 25ca 4bbe f696 a53d e0f9 003e c6fe 783e
00000040: bf5c 2e3d d7b9 cdbd da34 5cbe 6fef 42bd
00000050: b09f 9ebd a553 04bb f650 bd3d 3139 d53d
00000060: 1d9a c0bd 8e9f 853d 10ed 833d 82c6 f73d
00000070: b104 8d3c 163d 2a3d 4c33 2ebd ee88 ef3c
00000080: 6f43 9fbd b5ce 163d 6c3e a7bb 5f33 193d
00000090: 7870 14bc 4a5c 49bc e1a7 c3bd 9974 c63d
000000a0: 3580 973b 36a3 e4bc 3a8e c53d e69e debd
000000b0: 53a3 463d 0cd2 643c 18c4 04be 0b8f 29be
000000c0: 601c 573d 08df d83d ead2 b3bb 083b 0f3e
000000d0: 3f37 8c3d 3fe9 aa3d b2dd c6bd 357b 8ebe
000000e0: 6bbb 3cbd c9a3 ad3c eebf a23c 1110 95bd
000000f0: 395a 9f3d 05a8 b83d 514f 45be 2b39 a3be
00000100: c8db 5ebe 9dee c13b 26a4 59bd b25a ef3d
00000110: 9f2e a4be 9373 0cbe c00c bdbd c264 d5bd
00000120: 9a47 983c 1965 32bd a6f1 1fbe ae0b e8bd
00000130: 3858 33be 4588 153d 795c 00bd 91cb babd
00000140: 7a93 e23d 6f82 5ebd 6727 d9bd 853e a2bd
00000150: 1c53 2dbe 55bf 20be 5971 babd 011a c1bc
00000160: a933 cd3d 4ea3 743e 6dd9 2bbe 4aa6 3bbd
00000170: 9955 eabd c346 acbe 1584 31be a2a9 433e
00000180: 14c1 8a3d e783 ccbd 91bf 91be 3061 3fbe
00000190: e43b 62be c77e 00bb 8917 5abd a217 44be
000001a0: a89b 7dbd 0629 54be d0bf 96be 981e 92bc
000001b0: db6e 13bd 100f abbd d815 57bd f836 afbd
000001c0: f4d1 19be 5b1d e73d 5957 81bd 004f 293c
000001d0: b93c 9fbd 822e 093e 1989 d8bd e930 5dbe
000001e0: 320a c33e b685 a53e 886d 9f3d 3d81 043e
000001f0: 4cb3 3ebe 403d fa3c 2dba c1be ee59 b9bd
00000200: 7758 2f3d cdc6 8bbe 7f8a 90bc bd2e d5bc
00000210: e690 80bc 6c2d 623e 60b0 5d3d 54ea 62be
00000220: 1ff4 acbd 0d45 dfbd 4f44 853c 0fd8 fb3d
00000230: aa28 5c3e f096 133e a16e 5e3d 54d6 953d
00000240: a437 ebbc 5045 73bd 2239 20bd c22a 99bc
00000250: 537b 8cbd 4bdc 75ba b3e3 2d3e 1498 e7bd
00000260: f911 a33d d2a1 2abe 9db2 cfbd 1571 1d3e
00000270: 82cb 073e 0714 62bc 02c0 9d3d f148 b2bd
00000280: 0f52 06be 9b6e 4abe b03a 49bd 1f90 f2bc
00000290: 3b48 bdbd cc82 913b 43bd 8ebd e2a5 f03d
000002a0: 4aee 34be a925 13be 9a56 27bc 36a4 ca3d
000002b0: 3c4d 64bd ee1d 9dbd 0376 fbba fbee 1d3e
000002c0: 993a 82bd 1ea8 cdbb cf8a 14bd e198 a6bc
000002d0: 27b7 eb3d 19f4 aabc a378 ae39 31ea 093e
000002e0: 8b01 94be 3c14 8fbd eb9f debd b12f 843c
000002f0: c9f5 ab3d a4b4 ebbd 3b0f 023e e80a 8fbe
00000300: ffc4 89be db7f 9cbe 7ec5 02bd 3162 5e3d
00000310: d30c b8bd 9dbb a6bd d5e2 29bd e877 253e
00000320: 9f3f 2a3e b484 1ebe 4172 0abe 045f 51be
00000330: 0ba0 0fbe 07d1 d43d e38d 973d 98cf 993d
00000340: 8e2f 4f3d 6e99 0abe c7e6 24bd 6167 1abe
00000350: 98e4 40bd 56c8 ca3c 7e6f 333d 0abf 55be
00000360: 60f9 25be 64f5 75bc 1da6 013b 81fc 0e3d
00000370: ffa0 ac3d 0a28 983d ef0a 81bd 06c0 68bd
00000380: 0631 0e3d 9486 02be 8bfe d13c 567b bc3d
00000390: 1f00 3c3d e413 e83d c738 2b3e 4a00 08be
000003a0: f2a6 413d 600e 19be 53d0 f23d 5f47 e83b
000003b0: f9cb 8ebd 3638 9c3d 9bbd c63d 288b 4fbe
000003c0: 4f0a 8cbd 840a 43be 8044 37bc eb6a 8b3d
000003d0: 3f5b 563d d292 b83c 1bf3 3b3e e08f 993d
000003e0: 22e3 ed3c 8712 3a3d dc0b 543d ac99 243c
000003f0: f297 eb3c 8cb6 9e3d 10f9 b83d 2f8c 94bd
0.12664218 -0.07795473 -0.062492058 -0.029440252 -0.059838027 0.093426794 0.039601337 0.26214027
-0.003203946 -0.11565139 -0.07055873 0.09399555 -0.19901331 0.08085434 0.1259532 0.24315938
0.04256892 -0.10045212 -0.21504536 -0.047591623 -0.07745302 -0.0020191458 0.09243958 0.10411299
-0.09404395 0.06524573 0.064417005 0.12098409 0.017214151 0.041562162 -0.04252939 0.029240098
-0.07776534 0.036818225 -0.005103877 0.037402507 -0.009060018 -0.01229007 -0.09553505 0.09690208
0.0046234378 -0.027909856 0.09646268 -0.10870151 0.048495602 0.013966095 -0.12965429 -0.16558473
0.052517295 0.10589415 -0.0054877894 0.13987362 0.06846475 0.083452694 -0.09710254 -0.27828375
-0.046077173 0.021196263 0.01986691 -0.07278455 0.077808805 0.09016422 -0.19268538 -0.31879553
-0.21763527 0.0059183375 -0.05313506 0.11687221 -0.3206682 -0.13715963 -0.092309475 -0.10419609
0.01858883 -0.043553445 -0.15619525 -0.11330353 -0.17514122 0.03650691 -0.03133819 -0.091208585
0.11063285 -0.05432361 -0.106032185 -0.07922081 -0.16926235 -0.15697987 -0.091036506 -0.02357197
0.10019619 0.23890421 -0.1678216 -0.045812882 -0.11442108 -0.33647737 -0.17335542 0.19107679
0.06775108 -0.09986096 -0.28466466 -0.18689418 -0.22093159 -0.0019606815 -0.0532451 -0.1914964
-0.061916023 -0.20718774 -0.29443216 -0.017836854 -0.035994392 -0.08352482 -0.052511066 -0.08555406
-0.15021497 0.11284896 -0.06315488 0.0103337765 -0.07775254 0.13396648 -0.10573024 -0.21600689
0.38093716 0.32328576 0.07784563 0.12939925 -0.18623084 0.030546784 -0.37837353 -0.09050356
0.042808976 -0.2730011 -0.017644165 -0.026023263 -0.015694093 0.2208764 0.054123282 -0.22159702
-0.08445 -0.10901842 0.016267924 0.12297069 0.21499887 0.14413047 0.054304723 0.073162705
-0.028713055 -0.059392273 -0.039116986 -0.018697146 -0.0685946 -0.00093788345 0.16981392 -0.113083035
0.079624124 -0.16663292 -0.1014149 0.15375169 0.13261226 -0.01379872 0.07702638 -0.08705319
-0.1311724 -0.19768755 -0.049128234 -0.029609738 -0.092422925 0.004440641 -0.069696926 0.1175039
-0.17669025 -0.14369835 -0.0102135185 0.09894602 -0.05573772 -0.07671724 -0.001918495 0.15423195
-0.06358833 -0.0062761446 -0.03626519 -0.02033657 0.11509543 -0.020868348 0.00033277748 0.13468243
-0.28907427 -0.06986281 -0.10870346 0.016136022 0.08396489 -0.11509064 0.12701122 -0.27938008
-0.2690811 -0.30566296 -0.031926624 0.05429286 -0.08986821 -0.08141253 -0.04147609 0.16159022
0.16625832 -0.1548031 -0.13520147 -0.20446402 -0.14025895 0.10391431 0.074001096 0.075102985
0.05058246 -0.13535091 -0.04025915 -0.15078498 -0.047093004 0.02475373 0.0438075 -0.20873657
-0.1620841 -0.015012119 0.001978285 0.034908775 0.08429145 0.07429512 -0.063009135 -0.056823753
0.03471472 -0.1274665 0.02563407 0.09203212 0.045898553 0.11331919 0.16720878 -0.1328136
0.047278352 -0.1494689 0.11856141 0.007088586 -0.069724984 0.07627909 0.09704133 -0.20267928
-0.06837904 -0.1904698 -0.011185765 0.06807502 0.052333113 0.022530947 0.18354456 0.07498145
0.02903897 0.045427825 0.051769122 0.010046404 0.028758977 0.07749662 0.0903188 -0.072533004

fc1.bias f4 [10]
00000000: e5d5 aebd 0d2b 85be 3bc4 89b9 1ef8 903d
00000010: 9712 873e 5574 2cbe 4541 913d 6383 85bd
00000020: 3a3c 2a3e ee9e 2abd
-0.08536891 -0.26009408 -0.0002627688 0.070785746 0.2638137 -0.16841252 0.07092527 -0.06519201
0.16624537 -0.041655473
