model_m2.ckpt (torch_old, 498183 bytes, 16 tensors)

layer1.0.weight f4 [16, 3, 3, 3]
0	0x3f45b2b2	0.7722579
1	0x3d5f0149	0.054444585
2	0x3e045207	0.12921916
3	0xbe9880bf	-0.29785725
4	0xbd183af0	-0.037165582
5	0x3e8f8c89	0.28036907
6	0xbee2010b	-0.4414142
7	0xbf1fe990	-0.62465763
8	0x3f13e0c8	0.57764864
9	0x3e869c20	0.2629099
10	0xbeaf3421	-0.3421946
11	0x3de9b3d2	0.11411251
12	0xbd97c0ad	-0.07409797
13	0xbd9f7b78	-0.07787222
14	0xbe20d17b	-0.1570491
15	0xbd89f074	-0.06735316
16	0xbef89e1e	-0.48558134
17	0x3f2b7e4c	0.6698959
18	0x3e7ba7ad	0.24575682
19	0xbeaa543f	-0.332674
20	0xbdb026a0	-0.08601117
21	0x3e25db15	0.16196854
22	0xbeec0673	-0.4609867
23	0x3e152176	0.14563546
24	0x3e296cbd	0.16545387
25	0xbcbe9f0b	-0.023269197
26	0xbe28f9f1	-0.16501595
27	0xbe4a6d5e	-0.19768283
28	0xbeba76a4	-0.3641864
29	0xbe118d78	-0.14214122
30	0xbd7c024f	-0.06152564
31	0xbe267e94	-0.16259223
32	0xbca3cb29	-0.019994335
33	0x3e79ee3b	0.24407284
34	0xbe3e982e	-0.1861274
35	0x3ef18e3d	0.47178832
36	0x3e2cf2bb	0.1688947
37	0xbd1cd1ad	-0.0382859
38	0xbf53d8ef	-0.8275289
39	0x3e542232	0.2071617
40	0xbd87f6f5	-0.066389
41	0x3a853739	0.0010163552
42	0xbcca9bcb	-0.024732491
43	0x3ea60201	0.32423404
44	0x3ea4efdb	0.32214245
45	0x3e3ee754	0.18642932
46	0xbde44421	-0.11145807
47	0xbe63e304	-0.22254568
48	0x3c56472a	0.01307849
49	0x3e2bdd83	0.16783719
50	0x3a01082f	0.0004922179
51	0xbd85b386	-0.06528382
52	0x3d3514d0	0.0442093
53	0x3db99117	0.09060877
54	0xbe08772d	-0.13326712
55	0xbd9b7ae8	-0.07591802
56	0xbe36d2fd	-0.17853923
57	0x3df4b174	0.11947909
58	0x3e372114	0.17883712
59	0x3e96fa34	0.29487765
60	0x3cb31e1a	0.02186494
61	0x3c92f6e4	0.017939992
62	0x3e8df446	0.27725428
63	0xbe9ed664	-0.31022942
64	0xbec19e5c	-0.3781613
65	0x3dabcadc	0.08388302
66	0x3e6d17fe	0.23153684
67	0xbe17ddb0	-0.14830661
68	0x3e105bae	0.14097473
69	0xbf065652	-0.52475464
70	0xbed7e6b6	-0.42168206
71	0xbeb93105	-0.3617021
72	0x3ec02833	0.3753067
73	0xbec43eb1	-0.3832908
74	0xbf3ecd25	-0.74531776
75	0x3e4f2453	0.202287
76	0x3e41254c	0.18861884
77	0x3ef4d4c7	0.47818586
78	0x3b47eec8	0.0030507315
79	0x3eb1d4e4	0.34732735
80	0x3ed84c2a	0.4224561
81	0x3ea74e17	0.32676765
82	0x3e9aad9f	0.30210587
83	0xbe45f55b	-0.19331877
84	0x3bf234d0	0.0073915496
85	0x3e9c0b0c	0.30477178
86	0x3ab2602c	0.0013608984
87	0x3cc4f651	0.024043234
88	0x3e6d1f00	0.23156357
89	0xbeeddd69	-0.46457985
90	0x3e4c5b78	0.19956768
91	0x3eb5bfcf	0.354979
92	0x3e55dec3	0.20885758
93	0xbf13c268	-0.57718515
94	0x3df9acfa	0.12191196
95	0x3f086e6e	0.532935
96	0xbf152cc7	-0.5827145
97	0xbdd76042	-0.105164066
98	0xbe932525	-0.28739277
99	0xbe9dcf39	-0.3082216
100	0x3e824264	0.25441277
101	0x3d5e6433	0.054294776
102	0xbf3a6285	-0.7280658
103	0x3b01c3c7	0.001980053
104	0x3ea63aab	0.32466635
105	0xbee33413	-0.44375667
106	0x3c5e518b	0.013569246
107	0x3ec8e85c	0.39239776
108	0xbf31046b	-0.69147366
109	0xbe826d8f	-0.25474212
110	0x3efb15d3	0.49040088
111	0x3e675ba9	0.2259356
112	0x3d5c67a4	0.053809777
113	0xbe895644	-0.26823628
114	0x3e41cb26	0.18925151
115	0x3d9a9e5e	0.075497374
116	0xbe08b75f	-0.133512
117	0xbde687ca	-0.112563685
118	0x3de19f02	0.110166565
119	0x3e20ed67	0.15715562
120	0x3d133dcc	0.035947606
121	0x3e206d21	0.1566663
122	0x3e015fd7	0.12634216
123	0x3e680f62	0.22662118
124	0xbeedd9ed	-0.46455327
125	0x3e9c2ed9	0.30504492
126	0x3ea89413	0.32925472
127	0x3d910510	0.07081044
128	0xbec14e0b	-0.37754855
129	0x3b689494	0.003548895
130	0xbe225ddc	-0.15856117
131	0x3e2318b8	0.15927398
132	0x3e8e6ebc	0.2781886
133	0x3bd5e35a	0.0065273466
134	0xbf0c6a2d	-0.5484951
135	0x3d82b907	0.063829474
136	0xbe2ff1b9	-0.17182054
137	0xbe822c3d	-0.25424376
138	0x3dacb41b	0.0843279
139	0x3d830331	0.06397093
140	0xbe4b51ca	-0.19855419
141	0x3db76c36	0.089561865
142	0xbde7b226	-0.11313276
143	0x3bc800b9	0.006103602
144	0xbdf01f9e	-0.117247805
145	0xbe86086d	-0.26178303
146	0xbe82d005	-0.2554933
147	0xbd495fae	-0.049163513
148	0x3d87fd32	0.0664009
149	0xbef20096	-0.47266072
150	0xbdd8fff5	-0.10595695
151	0x3e963cbe	0.29343218
152	0xbdcf6262	-0.10126187
153	0x3d907555	0.07053629
154	0xbe2e3f46	-0.17016324
155	0x3f0dd6fa	0.55406153
156	0xbc947a3d	-0.018124694
157	0x3d0452b2	0.032305427
158	0x3d50f7a0	0.051017404
159	0x3e0a497a	0.13504592
160	0xbd80a792	-0.062819615
161	0x3e020ebf	0.12700938
162	0xbd65bdb9	-0.056089137
163	0xbe9803c4	-0.29690373
164	0xbe012516	-0.12611803
165	0xbcad5d49	-0.021162646
166	0xbda56865	-0.08076552
167	0x3d98579e	0.07438587
168	0x3c9e42a6	0.01931889
169	0xbe3b58e3	-0.18295626
170	0x3cc82a52	0.024434242
171	0x3f348ad6	0.70524347
172	0x3d9bf1da	0.07614489
173	0x3e859197	0.2608764
174	0x3ec2a6dd	0.38017932
175	0x3d62e199	0.055390928
176	0x3e8c9dff	0.2746429
177	0xbe071a92	-0.1319373
178	0xbcb645bb	-0.022250047
179	0x3ba702b9	0.00509676
180	0x3daf44eb	0.08558067
181	0xbee3f8d6	-0.44525784
182	0xbd004c9f	-0.03132307
183	0xbef7a666	-0.4836914
184	0xbf1e854b	-0.6192214
185	0x3e44a737	0.19204412
186	0x3e3378df	0.17526577
187	0xbec81d6b	-0.39084944
188	0x3ef50349	0.4785407
189	0xbf18a9bf	-0.5963401
190	0x3e088e82	0.13335612
191	0xbd66653f	-0.0562489
192	0xbe199666	-0.14998779
193	0x3d32f1d6	0.043687664
194	0xbb5b67f3	-0.0033478707
195	0x3de5da2b	0.11223253
196	0xbd1fb3a9	-0.038989697
197	0x3e93299c	0.28742683
198	0x3e4bf4a0	0.19917536
199	0xbea67473	-0.3251072
200	0xbdb4d0fc	-0.08828923
201	0x3e3368e6	0.17520484
202	0x3f34b769	0.7059236
203	0xbdb0c611	-0.08631528
204	0x3e3470a1	0.1762109
205	0xbf0f0546	-0.5586742
206	0x3e84048b	0.25784716
207	0x3da3cf5f	0.07998537
208	0x3f13498e	0.5753411
209	0x3e3a03f6	0.18165573
210	0xbd5dfe2e	-0.054197483
211	0xbe7694d4	-0.24080211
212	0xbe72c45d	-0.23707719
213	0x3e769a74	0.24082357
214	0x3dd6acfa	0.104822114
215	0xbe28adfa	-0.16472617
216	0xbeebb83d	-0.46039
217	0x3ed76082	0.42065817
218	0x3ec56d8f	0.3856015
219	0xbdd96894	-0.1061565
220	0x3d92fbf5	0.07176963
221	0xbd81db5f	-0.0634067
222	0x3f09247e	0.5357131
223	0x3e467dd5	0.19383939
224	0xbefc3996	-0.49262685
225	0xbeea18dd	-0.45722094
226	0x3ee9c84d	0.4566063
227	0xbd497b7a	-0.049190022
228	0x3e59fca0	0.21287775
229	0x3db707ed	0.089370586
230	0xbeb196ce	-0.34685367
231	0xbdb9aec3	-0.09066536
232	0xbe86734a	-0.26259834
233	0x3d0a655c	0.03378807
234	0xbe82f756	-0.25579327
235	0x3e42ad34	0.19011384
236	0x3ed42e13	0.41441402
237	0x3e6cee68	0.2313782
238	0xbf39affa	-0.72534144
239	0xbe26cf9e	-0.16290137
240	0x3eb4768a	0.35246688
241	0xbebd22c4	-0.36940587
242	0xbe50d0c3	-0.20392136
243	0x3e26b9f2	0.1628187
244	0x3efc44f4	0.49271357
245	0x3d014053	0.031555485
246	0xbc71103d	-0.014713344
247	0xbe41850a	-0.18898407
248	0xbe493e0d	-0.19652577
249	0xbde900a4	-0.11377075
250	0xbee1e9aa	-0.44123584
251	0x3ee3fe9a	0.44530183
252	0x3df35a93	0.1188251
253	0x3ee6914c	0.45032728
254	0x3dbab7b8	0.09117073
255	0xbec3b0b7	-0.3822076

layer1.0.bias f4 [16]
0	0x3d950633	0.07276573
1	0x3dcdaac1	0.10042334
2	0xbcdf2d69	-0.027243333
3	0x3e0668a4	0.13125855
4	0x3dad3a48	0.08458382
5	0xbe6ae9b3	-0.22940712
6	0xbd1311b0	-0.03590554
7	0xbdabe1c3	-0.0839267
8	0xbdfb6110	-0.122743726
9	0xbd2296af	-0.039694484
10	0x3d73ccd7	0.059521522
11	0x3bfeb862	0.007773445
12	0x3cb9a597	0.022661967
13	0x3c0b51e5	0.008503412
14	0x3e6082c9	0.2192489
15	0xbc90b208	-0.017663017

layer1.2.weight f4 [16, 16, 3, 3]
0	0xbbd7a4a0	-0.006580904
1	0x3e423615	0.18965943
2	0x3c83dca1	0.016096415
3	0xbd66dd9f	-0.056363698
4	0xbd0979ee	-0.033563547
5	0xbd83b6f2	-0.064313784
6	0xbd8b12da	-0.06790705
7	0x3daf958f	0.08573448
8	0xbe2a4375	-0.16627295
9	0x3d3b4d21	0.045727853
10	0x3d8e8088	0.06958109
11	0xbcbcc09c	-0.023041062
12	0x3e086b0d	0.13322087
13	0xbe92d8e9	-0.28681114
14	0x3b4b2c0d	0.0031001598
15	0x3d34a37e	0.04410123
16	0x3d8ab4fc	0.06772801
17	0xbd781272	-0.060564466
18	0xbdd561e0	-0.10419059
19	0x3c2ef647	0.010678834
20	0x3e2fb558	0.17159021
21	0xbe836420	-0.25662327
22	0xbe0c5aa5	-0.13706453
23	0x3db3ad13	0.08773246
24	0x3df7fcf0	0.12108791
25	0x3d058510	0.0325976
26	0xbe180d45	-0.14848812
27	0x3cd070a4	0.025444336
28	0x3e55ce52	0.20879486
29	0xbcd10477	-0.025514824
30	0xbe4a90dc	-0.19781822
31	0xbe2952e0	-0.1653552
32	0x3e2e0092	0.16992405
33	0x3e2223fa	0.15834036
34	0xbea10294	-0.3144728
35	0x3dc0a7da	0.09407015
36	0x3e56d024	0.20977837
37	0x3d42826c	0.04748766
38	0xbea11b22	-0.31466013
39	0xbd1fa78a	-0.038978137
40	0x3ea65848	0.32489228
41	0xbe479e38	-0.1949395
42	0x3c71db06	0.014761692
43	0x3e1ccaea	0.1531178
44	0x3d94478e	0.072402105
45	0xbe0f53df	-0.13996838
46	0x3d18ad5d	0.037274707
47	0x3e8d36a9	0.27580765
48	0x3e15c8c1	0.14627363
49	0xbd2ea9fb	-0.042642575
50	0xbdb78c70	-0.08962333
51	0x3cab58a1	0.020916285
52	0x3da9ae99	0.08285255
53	0xbe2804a1	-0.16408016
54	0x3d4cc259	0.049990032
55	0x3d3fa961	0.04679239
56	0xbe8ce7c2	-0.27520567
57	0xbde011f3	-0.109409235
58	0x3caf8f54	0.021430649
59	0xbeb22642	-0.34794813
60	0x3d48de54	0.049040154
61	0x3e5cc715	0.21560319
62	0x3e1c57b9	0.15267839
63	0xbe0c0959	-0.13675441
64	0x3e12d15b	0.14337675
65	0x3da73c9d	0.08165858
66	0xbdb53182	-0.088473335
67	0xbe26d539	-0.16292275
68	0x3ce9a0a8	0.02851899
69	0x3e5b7d32	0.21434477
70	0xbdc80206	-0.09766011
71	0x3e684821	0.22683765
72	0xbd9f159e	-0.07767795
73	0x3e45cc24	0.19316155
74	0xbe67b773	-0.22628574
75	0xbe5cbd63	-0.2155662
76	0x3ebbcb4a	0.36678535
77	0x3d786633	0.06064434
78	0xbea815f3	-0.32829246
79	0xbdf4c017	-0.11950701
80	0xbb8a5711	-0.004221805
81	0xbe985a2d	-0.297563
82	0x3c0b293f	0.008493721
83	0xbdb1084d	-0.086441614
84	0xbe2170f6	-0.15765747
85	0x3d5c3a5b	0.05376659
86	0x3e050196	0.12988886
87	0x3e1b25fd	0.1515121
88	0xbe1c9e3c	-0.15294737
89	0x3d1002e6	0.035159014
90	0x3e406860	0.18789816
91	0xbe63dd88	-0.22252476
92	0x3c3e7333	0.011624145
93	0x3e9110c0	0.28333092
94	0xbd8f1a00	-0.06987381
95	0xbeaf26bd	-0.34209242
96	0x3c252238	0.010078959
97	0x3e4aa6d1	0.19790198
98	0xbe572f17	-0.21014057
99	0x3e84df4f	0.2595162
100	0xbdf6a388	-0.1204291
101	0xbe4420d2	-0.19153145
102	0x3e592b0f	0.21207832
103	0xbd0784a3	-0.033085477
104	0xbec62d87	-0.3870661
105	0x3d6515e6	0.055929087
106	0x3e488b2d	0.19584341
107	0xbcc202cc	-0.023682974
108	0x3e26bec4	0.16283709
109	0xbe5c303a	-0.21502772
110	0xbde8e40c	-0.113716215
111	0x3dbf05fe	0.09327315
112	0xbe093c19	-0.13401832
113	0x3dcc66e2	0.09980561
114	0x3e849dab	0.2590154
115	0xbe315194	-0.17316276
116	0x3e203e60	0.15648794
117	0x3dbb3b19	0.09142131
118	0x3a3fee11	0.00073215464
119	0x3cd8bf63	0.026458448
120	0xbe356327	-0.17713605
121	0x3e268bf8	0.16264331
122	0xbdcef709	-0.10105712
123	0xbea31781	-0.3185387
124	0x3b208bdb	0.0024497423
125	0x3d699df5	0.057035405
126	0xbe417ef8	-0.18896091
127	0x3e8f8b8c	0.28036153
128	0xbdd7738e	-0.10520087
129	0xbdc51d99	-0.09624786
130	0x3dfc0e2c	0.123073906
131	0x3daaad10	0.0833379
132	0xbe64d26b	-0.22345893
133	0xbecd6dd7	-0.40122864
134	0x3edb8c21	0.42880347
135	0xbdc9d908	-0.098558486
136	0x3c9c6d57	0.019095106
137	0xbc901ee7	-0.01759286
138	0x3dbf6dc7	0.0934711
139	0xbdbef89a	-0.09324761
140	0xbd2babec	-0.041912004
141	0x3e1937a3	0.1496263
142	0x3e38d24e	0.18048975
143	0xbe4733c6	-0.19453344
144	0xbc1c0cad	-0.0095245065
145	0x3e32130b	0.17390077
146	0x3dc3c1da	0.095584586
147	0x3e249654	0.1607297
148	0xbe700d5b	-0.23442595
149	0xbe0c18c0	-0.13681316
150	0xbe4a8a09	-0.19779219
151	0xbe07a3c1	-0.13246061
152	0x3d9b943b	0.07596632
153	0xbc20fe35	-0.009826233
154	0x39d8b051	0.00041330096
155	0xbe30480b	-0.17214982
156	0x3da27b38	0.07933658
157	0xbea93e8e	-0.33055538
158	0xbce00390	-0.027345449
159	0x3e01526b	0.12629096
160	0xbeb8d2d3	-0.36098346
161	0xbd05ed50	-0.032697022
162	0xbe6c2d9d	-0.23064275
163	0x3e3acbd9	0.18241824
164	0x3e8a040d	0.26956216
165	0x3d76975a	0.060202934
166	0xbd66a5e3	-0.056310546
167	0xbc20cd65	-0.009814595
168	0x3dbd71fe	0.09250258
169	0xbcb19226	-0.021676134
170	0xbda8369d	-0.08213542
171	0xbe0c5163	-0.13702922
172	0x3e527c11	0.2055514
173	0x3dd12c9d	0.102135874
174	0x3d300c9a	0.042980768
175	0x3d654f6b	0.055983942
176	0xbe81c52e	-0.2534575
177	0x3e54dd69	0.20787586
178	0xbe9f787b	-0.31146607
179	0xbda792c7	-0.081822924
180	0x3cc5cbee	0.024145093
181	0xbc2f0c36	-0.010684064
182	0xbe65d22e	-0.22443458
183	0xbe46327f	-0.193552
184	0xbd87a75d	-0.06623719
185	0x3da980e8	0.0827654
186	0x3d281825	0.04103865
187	0xbcc44627	-0.023959232
188	0xbd71a80b	-0.05899815
189	0x3c1dfd5b	0.009642924
190	0xbd9b8d37	-0.07595294
191	0x3db0888c	0.08619794
192	0xbd73713a	-0.059434153
193	0x3e00c7c1	0.125762
194	0xbe537e87	-0.20653735
195	0x3e12eb56	0.14347586
196	0xbc4c124f	-0.012455537
197	0xbca10724	-0.019656725
198	0x3de263ae	0.11054169
199	0x3e136c02	0.1439667
200	0x3dccbf7d	0.09997461
201	0x3e405e57	0.18785988
202	0xbd44469e	-0.04791891
203	0x3ec5ad3e	0.38608736
204	0x3c9edb0a	0.019391555
205	0xbe5195f9	-0.20467366
206	0x3d729ea3	0.05923332
207	0xbec10b29	-0.37703827
208	0xbd937e88	-0.07201868
209	0xb96574f7	-0.00021882715
210	0x3e0c443e	0.13697907
211	0x3db1ca01	0.08681107
212	0x3c984276	0.018586379
213	0x3daef86f	0.08543479
214	0x3dd81b43	0.10552075
215	0x3e8c3414	0.27383482
216	0x3d76a886	0.06021931
217	0x3d116e0b	0.035505336
218	0xbea2ce62	-0.31798083
219	0xbd6daadf	-0.058024283
220	0xbb70b107	-0.003672661
221	0x3e054405	0.13014229
222	0xbeb39240	-0.35072517
223	0x3cffb2f3	0.03121326
224	0x3e00c1ce	0.1257393
225	0xbe4f7713	-0.20260267
226	0xbd9fe9aa	-0.0780824
227	0xbe52987f	-0.20565985
228	0xbde691a5	-0.11258248
229	0xbd99133b	-0.07474371
230	0x3d251697	0.040304746
231	0xbd0179c8	-0.03161028
232	0xbeb15fad	-0.34643307
233	0xbe937b54	-0.2880503
234	0xbe359f26	-0.17736492
235	0xbd737fa6	-0.059447907
236	0x3e954083	0.2915078
237	0xbe0d8fa6	-0.13824329
238	0xbd135823	-0.035972726
239	0x3d7f78af	0.062370952
240	0xbe03e183	-0.12878995
241	0xbbe0e920	-0.006863728
242	0x3c9901ca	0.01867761
243	0x3d86cd5a	0.065821365
244	0xbc8ecd2f	-0.017431824
245	0x3b737d5f	0.0037153584
246	0xbdd1ab66	-0.1023777
247	0x3d62c023	0.055359017
248	0x3e5d0d65	0.21587141
249	0x3e0f9c9c	0.14024585
250	0xbe0be331	-0.13660885
251	0x3e22a2c9	0.1588241
252	0xbc2241cd	-0.009903383
253	0x3e920683	0.28520593
254	0xbc729122	-0.01480511
255	0x3d023807	0.031791713

layer1.2.bias f4 [16]
0	0x3d06e968	0.032937437
1	0x3d9972df	0.07492613
2	0x3d42b59e	0.047536485
3	0xbd22c697	-0.03974017
4	0xbda0de79	-0.07854933
5	0x3dac1bd5	0.08403746
6	0xbd3be9e4	-0.045877352
7	0x3d958763	0.073012136
8	0x3cf760c8	0.030197516
9	0x3b827381	0.0039810543
10	0xbdc1165d	-0.094280936
11	0x3dc23771	0.09483231
12	0xbd53dd43	-0.051724683
13	0xbddae1aa	-0.10687573
14	0xbde4f7ab	-0.111800514
15	0x3cb2318f	0.021752147

layer2.0.weight f4 [32, 16, 3, 3]
0	0x3d0e5ded	0.034757543
1	0xbe84dd5d	-0.25950137
2	0x3d74bd40	0.059750795
3	0xbcbd79a1	-0.023129286
4	0xbc06621e	-0.008202104
5	0xbed15960	-0.408885
6	0xbe2134c2	-0.15742782
7	0xbe5c00d5	-0.21484692
8	0xbdf26aeb	-0.11836799
9	0xbd1cf13a	-0.03831599
10	0x3e67118b	0.22565286
11	0xbc5d22c1	-0.0134970555
12	0xbea3103a	-0.31848317
13	0xbdf573e7	-0.11984997
14	0x3d82f2c2	0.06393959
15	0xbd84b7d5	-0.06480376
16	0x3ba010ee	0.0048848307
17	0xbc9b634b	-0.018968245
18	0xbd9448e2	-0.07240464
19	0xbe060125	-0.13086374
20	0x3ebdabda	0.37045175
21	0x3e725f3e	0.23669145
22	0x3c80a276	0.015702467
23	0x3df1f4b2	0.1181425
24	0xbc14e0f0	-0.009086832
25	0x3d3295cf	0.0435999
26	0xbe116ec3	-0.14202408
27	0x3dc152e4	0.09439638
28	0x3db89c67	0.090142064
29	0x3e85e81b	0.26153645
30	0xbe83d0f1	-0.25745347
31	0xbe08a4af	-0.13344072
32	0x3b80c9fb	0.003930328
33	0xbebd8a6a	-0.37019664
34	0x3e03cf67	0.12872086
35	0x3d7c9826	0.061668538
36	0xbd2c11d4	-0.04200919
37	0xbda653f1	-0.08121479
38	0xb99929e5	-0.00029213648
39	0x3d880a6d	0.066426136
40	0x3d2fdbdb	0.04293428
41	0xbd6681d8	-0.056276172
42	0xbea039aa	-0.31293994
43	0x3dbd5930	0.09245527
44	0x3e6ce9f8	0.23136127
45	0x3d476190	0.048677027
46	0xbd1f6ea9	-0.038923893
47	0x3e647842	0.223115
48	0xbd2bdddb	-0.041959625
49	0x3cd7b4ac	0.026331268
50	0x3e8f7f52	0.28026825
51	0x3d1f2628	0.038854748
52	0x3d01d21d	0.03169452
53	0x3e454c64	0.19267422
54	0x3e62a76f	0.22134183
55	0x3d309426	0.043110035
56	0x3e158dfb	0.14604943
57	0x3dc7cda1	0.097560175
58	0x3b20d121	0.0024538713
59	0x3d5ac549	0.053410802
60	0x3e0ae476	0.13563713
61	0x3dbea524	0.09308842
62	0x3d64ad24	0.055829182
63	0x3ca95a80	0.020673037
64	0x3eaa3ae8	0.33248067
65	0x3e0a6a3d	0.13517089
66	0x3d028026	0.031860493
67	0x3dea2171	0.1143216
68	0x3e9d0655	0.30668893
69	0x3e13059c	0.14357609
70	0x3d7f09d4	0.062265232
71	0x3d2ccf6a	0.042189993
72	0xbd90893f	-0.070574276
73	0xbcedfc17	-0.02905087
74	0x3e744d2a	0.23857561
75	0x3d2bb3f1	0.041919652
76	0xbdbf2f37	-0.093351774
77	0x3d391149	0.0451825
78	0x3db9b82a	0.0906833
79	0x3cd1e2cb	0.025620839
80	0xbe628945	-0.22122677
81	0xbde0b101	-0.10971261
82	0xbe608c19	-0.21928443
83	0xbd8b7b3e	-0.06810616
84	0x3d10eb37	0.03538057
85	0x3a039aaf	0.0005020303
86	0xbd885521	-0.06656862
87	0x3d8dab56	0.06917445
88	0xbe311a42	-0.17295173
89	0xbea4b0f1	-0.32166246
90	0x3dfeb34d	0.12436543
91	0xbdc6ba4f	-0.09703504
92	0x3e2a13c5	0.16609104
93	0xbda72f8f	-0.08163368
94	0x3d5878d2	0.0528496
95	0xbd2e9d05	-0.042630214
96	0xbe597564	-0.21236187
97	0xbde1a5f7	-0.110179834
98	0xbe0be2dd	-0.1366076
99	0x3e0bee96	0.13665232
100	0xbe06813a	-0.13135234
101	0x3d93e8de	0.0722215
102	0x3e53e7c1	0.20693876
103	0xbc07f5f2	-0.008298384
104	0x3ca1c0f6	0.019745331
105	0xbe494cca	-0.19658199
106	0x3b9d93b5	0.004808868
107	0x3e4b09e9	0.19827999
108	0xbdbe3a36	-0.092884466
109	0x3df00545	0.11719755
110	0xbcc42a03	-0.023945814
111	0xbdc47dd0	-0.09594309
112	0xbd49d716	-0.049277388
113	0x3dcc039c	0.09961626
114	0x3d8a4b68	0.06752664
115	0x3e1f5fa3	0.15563826
116	0x3e562d51	0.20915724
117	0x3db3b10a	0.08774002
118	0xbc484b27	-0.012224949
119	0xbd1f63b8	-0.03891346
120	0x3e03ecfb	0.1288337
121	0x3e3751b0	0.17902255
122	0x3e4fd48a	0.20295921
123	0x3d349725	0.044089455
124	0x3e9ee4be	0.3103389
125	0x3e5116f4	0.20418912
126	0x3d7a295d	0.061074603
127	0x3e0ed80c	0.13949603
128	0xbe1cd0d7	-0.15314041
129	0xbe504639	-0.20339288
130	0x3e1eafb7	0.15496717
131	0x3e2b5543	0.16731744
132	0x3c8f3c37	0.017484767
133	0x3dbd350b	0.09238633
134	0x3d890f73	0.066924
135	0x3d9b611b	0.07586881
136	0x3da26674	0.07929698
137	0xbd355ade	-0.04427611
138	0xbd3b043e	-0.045658343
139	0x3c928b04	0.017888553
140	0x3dc50dab	0.096217476
141	0x3d996257	0.0748946
142	0x3d168ec9	0.036757264
143	0x3e23bf94	0.1599105
144	0xbe0d0ab0	-0.13773608
145	0x3d2a460c	0.04157071
146	0xbd8c8a48	-0.068623126
147	0xbdc73e19	-0.09728641
148	0x3dde5fb0	0.10858095
149	0x3cd2b32a	0.025720198
150	0x3ed0d277	0.40785572
151	0x3e256914	0.16153365
152	0xbddf6907	-0.10908704
153	0xbe56248b	-0.20912378
154	0xbe62642b	-0.22108524
155	0x3e388947	0.18021117
156	0xbda8a26e	-0.08234106
157	0xbdc0d13b	-0.094149075
158	0x3c44f744	0.012021843
159	0xbdabf37d	-0.08396051
160	0x3d1aeffe	0.03782653
161	0x3dfce027	0.12347441
162	0xbd9c2791	-0.07624734
163	0xbdd1790e	-0.102281675
164	0x3da97890	0.082749486
165	0xbdf5381b	-0.11973592
166	0x3e203ee6	0.15648994
167	0x3dbeb170	0.09311187
168	0xbd662a37	-0.056192603
169	0xbd9a6df7	-0.075405054
170	0x3e888313	0.26662502
171	0xbd695d08	-0.056973487
172	0xbde94a30	-0.11391103
173	0x3e2ac899	0.16678084
174	0x3c2c89ef	0.010530933
175	0xbd9cb5eb	-0.076518856
176	0x3deff616	0.11716859
177	0xbd278b0f	-0.0409041
178	0x3d7c657c	0.06162022
179	0x3ea9f262	0.33192736
180	0x3d802c98	0.062585056
181	0x3de74171	0.11291779
182	0xbdf15d23	-0.117853425
183	0x3e7b9f58	0.24572504
184	0xbb975a2b	-0.004618903
185	0x3da55eea	0.08074744
186	0xbe68179e	-0.22665259
187	0xbcf2cafe	-0.02963781
188	0x3d245faa	0.040130295
189	0x3e28674f	0.16445659
190	0x3c90c8ef	0.017673938
191	0x3dff4342	0.12464
192	0xbe261261	-0.16217948
193	0xbe0f6631	-0.14003827
194	0x3ddd7456	0.10813205
195	0xbe061665	-0.1309448
196	0x3e426c4e	0.18986627
197	0x3b638806	0.0034718527
198	0xbd1986e1	-0.037482146
199	0xbdab511d	-0.083650805
200	0x3d315d92	0.043302126
201	0xbe9397a2	-0.28826624
202	0xbc86022e	-0.016358461
203	0xbd4edd78	-0.050504178
204	0xbd901f0f	-0.07037174
205	0xbd5ac5b5	-0.053411204
206	0xbe6a77ce	-0.22897264
207	0xbdd151a0	-0.10220647
208	0x3f14435b	0.57915276
209	0x3d16050e	0.036625914
210	0x3d884cce	0.06655274
211	0x3e8b5ac4	0.27217686
212	0x3e21de66	0.15807495
213	0xbdcaa4ad	-0.09894691
214	0x3eac8adf	0.336997
215	0xbaff9858	-0.0019500358
216	0x3d88310e	0.066499814
217	0xbd5792ce	-0.05263024
218	0xbc5177cc	-0.012784909
219	0x3cc3c6ee	0.023898568
220	0xbe56ff86	-0.20995912
221	0x3dcad217	0.09903353
222	0xbd2fc7cc	-0.04291515
223	0xbd847dee	-0.06469332
224	0x3db760eb	0.089540325
225	0xbdb94f26	-0.090482995
226	0xbd1710e0	-0.036881328
227	0x3e5cbf0c	0.21557254
228	0xbe4b6dc2	-0.19866088
229	0x3bc6bc7f	0.006064951
230	0xbd12f1cd	-0.03587513
231	0x3d81c7b3	0.06336918
232	0xbe3b9f60	-0.18322515
233	0x3e023996	0.1271728
234	0x3d237ece	0.039915852
235	0xbd8a095b	-0.06740066
236	0x3e602fa1	0.21893169
237	0xbdceca0a	-0.1009713
238	0x3e002e7d	0.12517734
239	0xbce287b4	-0.027652599
240	0xbd333f76	-0.043761693
241	0xbd9d3ef4	-0.07678023
242	0xbd36c1c2	-0.044618376
243	0xbe0a9699	-0.13534011
244	0xbe8219cd	-0.2541031
245	0xbe2b240b	-0.16712968
246	0xbe494ae8	-0.1965748
247	0xbeab5006	-0.3345949
248	0xbc3c3699	-0.0114876265
249	0xbe2daeee	-0.16961262
250	0xbe7efb79	-0.24900617
251	0xbdbdf23b	-0.092747174
252	0xbd8db2b3	-0.0691885
253	0xbe43d998	-0.19125974
254	0x3e31dada	0.17368641
255	0xbcb72e19	-0.022360848

layer2.0.bias f4 [32]
0	0xbe736d07	-0.2377206
1	0x3dacb385	0.08432678
2	0xbdcc5656	-0.09977405
3	0x3e2e105b	0.16998427
4	0xbd53f246	-0.05174472
5	0x3e471079	0.19439878
6	0x3e118f89	0.1421491
7	0x3e921d5c	0.28538024
8	0x3cf8483a	0.030307878
9	0x3e83eee1	0.25768188
10	0x3e58309d	0.21112294
11	0x3e82d83c	0.255556
12	0xbe2e26be	-0.17006966
13	0xbd813de6	-0.06310634
14	0xbd93a42f	-0.0720905
15	0xbd9b5a27	-0.075855546
16	0x3d0d4ab5	0.034495074
17	0xbe636194	-0.22205192
18	0x3e94adc1	0.29038814
19	0x3c870ab3	0.016484594
20	0x3e06b671	0.13155533
21	0x3da2c956	0.07948558
22	0xbdbe4705	-0.0929089
23	0x3dcb8b1d	0.09938643
24	0x3e985055	0.29748788
25	0x3c9f81e9	0.019471126
26	0x3ea2c21d	0.31788722
27	0x3e786abb	0.24259464
28	0x3da36955	0.07979075
29	0x3cb8be11	0.022551568
30	0xbe4c972e	-0.19979545
31	0xbe84cd39	-0.25937822

layer2.2.weight f4 [32, 32, 3, 3]
0	0x3d6b045d	0.057377208
1	0x3d1a951e	0.037739865
2	0xbdc1dbf6	-0.09465782
3	0x3e14e0aa	0.14538828
4	0xbdb300f0	-0.08740413
5	0x3e5b5ef3	0.21422939
6	0x3d4ecad3	0.050486397
7	0x3d92470b	0.071424566
8	0x3d4aa7d8	0.049476475
9	0xbcccb001	-0.024986269
10	0x3d97abb5	0.074057974
11	0xbdd6b0ee	-0.104829654
12	0xbcf34588	-0.029696241
13	0x3d6e7e43	0.05822588
14	0xbd8a1e7e	-0.06744097
15	0x3d5d2b27	0.05399623
16	0x3d8fae14	0.07015625
17	0x3e04eac5	0.12980182
18	0xbce45596	-0.027872842
19	0x3d8c582a	0.068527535
20	0xbd3b66f1	-0.04575247
21	0xbe96bab8	-0.2943933
22	0xbe0262db	-0.12733023
23	0x3ca52650	0.02015987
24	0x3d4d9451	0.050190274
25	0xbd1df38c	-0.038562343
26	0x3e8733f5	0.26406828
27	0xbcbf7f52	-0.02337614
28	0x3e0584fe	0.13039014
29	0x3e2561c0	0.1615057
30	0xbcc9b39a	-0.024621774
31	0xbd8ec630	-0.06971395
32	0xbd8e8a2b	-0.06959947
33	0xbdb99a91	-0.09062684
34	0xbd82f8d1	-0.06395114
35	0x3d96c89d	0.07362483
36	0xbde5d140	-0.11221552
37	0xbacc5da5	-0.0015591873
38	0x3d72a46f	0.059238847
39	0xbdb1a517	-0.086740665
40	0xbd65f1f0	-0.056138933
41	0xbd0e289a	-0.03470669
42	0xbcd9e8f4	-0.026600339
43	0xbe3e2ec0	-0.18572521
44	0xbd96fb58	-0.07372159
45	0x3d8a6c86	0.067589805
46	0x3e01e248	0.12683976
47	0x3e058d17	0.13042103
48	0x3dfaa1da	0.12237902
49	0x3d910f45	0.070829906
50	0x3d54669e	0.051855676
51	0xbb424ffb	-0.0029649723
52	0x3e050c84	0.12993056
53	0x3d7f34bb	0.062306147
54	0x3cc93eba	0.024566043
55	0x3c50c1d4	0.012741525
56	0x3de8e545	0.11371855
57	0x3d6f023a	0.058351733
58	0x3e753050	0.23944211
59	0x3e4d2865	0.2003494
60	0xbe2d39ed	-0.16916628
61	0xbdf15125	-0.11783055
62	0xbe00bb31	-0.12571408
63	0xbcd64965	-0.026158044
64	0x3c91fe19	0.017821359
65	0x3cddb009	0.02706148
66	0x3d8a023b	0.06738707
67	0x3cf12503	0.029436594
68	0xbdedb7fa	-0.11607356
69	0x3e33166c	0.17489022
70	0x3d9f2518	0.07770747
71	0xbe846950	-0.25861597
72	0x3d4326b9	0.04764435
73	0xbd64b7f3	-0.05583949
74	0x3d971cdf	0.073785536
75	0xbead8085	-0.33887115
76	0x3dd20c76	0.10256283
77	0x3e1c586a	0.15268102
78	0xbe4f5e59	-0.20250835
79	0xbd14df0e	-0.036345534
80	0xbdc877bf	-0.09788465
81	0xbda1c5f4	-0.07899085
82	0x3da15b33	0.07878723
83	0x3e2834fe	0.16426465
84	0x3c28fbe0	0.010313958
85	0x3d94e317	0.072698765
86	0xbdb4e8e8	-0.08833486
87	0xbdd1b70a	-0.1023999
88	0x3d8a91a4	0.0676606
89	0x3d8e6f0a	0.06954773
90	0x3db409eb	0.08790954
91	0x3df69dda	0.120418265
92	0x3d5ce16e	0.053925924
93	0xbdbd7fa6	-0.09252863
94	0x3e759900	0.23984146
95	0x3dc34058	0.09533757
96	0x3d87cb22	0.066305414
97	0xbdea1d60	-0.11431384
98	0x3e59bf46	0.21264371
99	0x3e1ecbfc	0.15507501
100	0x3c1f70c6	0.009731477
101	0x3e24822d	0.16065283
102	0x3cc39fd8	0.02387993
103	0x3e4f1311	0.20222117
104	0x3d106594	0.035253122
105	0xbc9db473	-0.019251084
106	0x3e45a08c	0.19299525
107	0xbe426a2c	-0.18985814
108	0xbd8539f9	-0.06505198
109	0x3e3cc075	0.18432792
110	0xbd6e23b7	-0.05813953
111	0xbd62a893	-0.055336546
112	0xbe65b506	-0.22432336
113	0xbe26d940	-0.16293812
114	0x3df51389	0.11966617
115	0x3e063b03	0.13108449
116	0x3cfcd0df	0.030861316
117	0xbdeca22c	-0.11554369
118	0x3e5c800c	0.21533221
119	0xbdb4289b	-0.087968074
120	0xbe41c60c	-0.18923205
121	0x3c9348b8	0.017979011
122	0xbd25de8a	-0.040495433
123	0xbc6965c8	-0.014245458
124	0x3e11c286	0.14234361
125	0xbccc0a60	-0.024907291
126	0x3e4f6a23	0.20255332
127	0xbe48dc86	-0.19615373
128	0xbe04b297	-0.12958752
129	0x3e15f71e	0.14645049
130	0xbe42d7e5	-0.1902767
131	0xbdbc2e6d	-0.091885425
132	0x3defa1b1	0.11700762
133	0xbe35d0e0	-0.1775546
134	0xbd6cf777	-0.05785319
135	0x3aed708d	0.0018115208
136	0xbdfe5f0f	-0.12420475
137	0xbde88787	-0.11353975
138	0x3dace604	0.084423095
139	0xbdcf5de6	-0.101253316
140	0x3e146cc2	0.14494613
141	0xbd8f4bd0	-0.06996882
142	0x3cd9d39a	0.026590157
143	0x3d4b2913	0.04959972
144	0xbe4ff92e	-0.20309898
145	0xbde5ad3c	-0.112146825
146	0xbe16b630	-0.14717937
147	0x3e02b61a	0.12764779
148	0x3dc3e9ff	0.095661156
149	0x3c9e0ba9	0.01929267
150	0x3de6ebb3	0.11275425
151	0x3dc9a58f	0.09846031
152	0x3e62d0dd	0.22149988
153	0xbd9cad24	-0.076502115
154	0xbe9973ab	-0.2997106
155	0xbdda7c13	-0.106681965
156	0xbdac9e48	-0.08428627
157	0xbe91c028	-0.28466916
158	0x3da1e590	0.07905114
159	0x3c48689a	0.01223197
160	0xbe86d918	-0.26337504
161	0x3e3d8566	0.18507919
162	0x3da46c09	0.080284186
163	0x3db38bf8	0.08766931
164	0xbc6b69dc	-0.014368501
165	0xbe170bf1	-0.14750649
166	0xbebccc12	-0.36874443
167	0xbe8dc16a	-0.27686626
168	0x3d68292c	0.05667989
169	0xbe25d159	-0.16193141
170	0xbdb5fc6b	-0.088860355
171	0xbe2f3213	-0.17108946
172	0xbda8f73c	-0.08250281
173	0xbde63da9	-0.112422295
174	0xbc9c2d33	-0.019064521
175	0xbedadd76	-0.42747086
176	0xbe285834	-0.16439897
177	0x3e1045c9	0.14089121
178	0xbe1a782b	-0.15084903
179	0xbe71d22f	-0.23615335
180	0xbe15bb10	-0.1462214
181	0x3e924c19	0.28573683
182	0x3e997554	0.29972327
183	0x3e9599bc	0.29218853
184	0xbe2ff2dc	-0.17182487
185	0xbe1b523c	-0.15168089
186	0x3d39a9d9	0.045327995
187	0xbe3a92b4	-0.18220025
188	0xbdb4bbda	-0.08824892
189	0xbc09c826	-0.0084095355
190	0xbe010eae	-0.12603256
191	0xbe1339d8	-0.14377534
192	0x3df18ec5	0.11794809
193	0x3d4c1436	0.049823962
194	0x3c888e8b	0.016669532
195	0xbe5bc259	-0.21460856
196	0x3d42ff22	0.047606595
197	0x3d4f6b6b	0.05063955
198	0x3d96a58f	0.073557965
199	0xbdfdcf33	-0.12393036
200	0x3e929a8f	0.28633544
201	0xbd925b90	-0.071463704
202	0xbd4f5a64	-0.050623313
203	0x3c316782	0.010827901
204	0xbd0ffb15	-0.03515156
205	0xbd87d752	-0.06632866
206	0x3d8b6bc0	0.06807661
207	0x3e541dd2	0.207145
208	0x3e699783	0.22811703
209	0x3d82c8a5	0.06385926
210	0x3d991c33	0.07476082
211	0xbe8cfda1	-0.27537253
212	0xbd7190e4	-0.05897607
213	0x3c19f386	0.009396439
214	0x3df05e1c	0.117367
215	0x3e631d0a	0.22179046
216	0xbe3ef1c3	-0.18646912
217	0xbec4b5fe	-0.384201
218	0xbe2b1e95	-0.16710885
219	0xbe2fffee	-0.17187473
220	0xbe78424b	-0.24244039
221	0x3c76f246	0.015072411
222	0xbbe324db	-0.0069318837
223	0xbdd3ecac	-0.10347876
224	0x3e9b2f10	0.30309343
225	0xbe910da4	-0.2833072
226	0xbe244d48	-0.16045105
227	0xbd3cd4a3	-0.046101224
228	0xbdd1b2e8	-0.10239202
229	0xbd9ed86e	-0.077561244
230	0xbd92ba81	-0.07164479
231	0xbe9a006e	-0.30078453
232	0x3e128e50	0.143121
233	0xbc708219	-0.014679455
234	0x3bf23269	0.0073912633
235	0x3e049584	0.1294766
236	0x3c50fe22	0.0127559025
237	0x3db27708	0.0871411
238	0xbe81d5e5	-0.253585
239	0x3d8c6c66	0.06856613
240	0xbd5a88f3	-0.05335326
241	0xbe5ae976	-0.21378121
242	0x3d7d60f6	0.061860047
243	0x3e46c59a	0.19411317
244	0x3d5f7d41	0.05456281
245	0x3cafbf69	0.021453576
246	0xbdf16ee6	-0.1178873
247	0x3da4ac0f	0.0804063
248	0xbe2075a4	-0.15669876
249	0xbe1d474d	-0.1535923
250	0xbd0065bf	-0.031347033
251	0x3c29bb33	0.010359573
252	0xbe542de5	-0.20720632
253	0xbe054c72	-0.13017443
254	0x3dc92649	0.098217554
255	0xbe713629	-0.23555817

layer2.2.bias f4 [32]
0	0xbcf51d06	-0.029921066
1	0xbcf123e2	-0.029436056
2	0xbdecc842	-0.11561634
3	0x3d98e9bd	0.07466457
4	0x3e8ea33c	0.27858913
5	0xbe32ff40	-0.17480183
6	0xbe02202f	-0.1270759
7	0xbda257cf	-0.079269044
8	0xbd9e7d7c	-0.07738778
9	0x3ebaa3fc	0.36453235
10	0xbe362af8	-0.17789829
11	0x3d43383e	0.04766106
12	0x3d5d095f	0.053964015
13	0x3d83b226	0.064304635
14	0xbcbdd82f	-0.023174373
15	0xbcf928d1	-0.03041497
16	0x3e39f3da	0.18159428
17	0x3c211fee	0.009834273
18	0xbd203ec0	-0.039122343
19	0xbd0e1ce4	-0.03469552
20	0x3dceb64e	0.100933656
21	0x3d9ebd11	0.07750905
22	0x3d14c5c2	0.03632141
23	0x3dd597dd	0.10429356
24	0x3bbb6f65	0.0057200664
25	0x3c9b28ce	0.018940356
26	0x3da52813	0.08064284
27	0x3e9d0fa6	0.30676
28	0xbe26dd90	-0.16295457
29	0x3c10a110	0.008827463
30	0xbd95edfd	-0.07320783
31	0x3daf132b	0.08548578

layer3.0.weight f4 [64, 32, 3, 3]
0	0x3d9fd698	0.078046024
1	0x3e16a072	0.14709643
2	0x3d0b5b15	0.03402241
3	0xbd9101a8	-0.07080394
4	0x3e0487ec	0.12942475
5	0x3deebb41	0.116568096
6	0x3e25ae25	0.16179712
7	0xbc5d2113	-0.013496655
8	0x3d8a2169	0.06744654
9	0x3ec31f74	0.38109934
10	0x3e49ce76	0.19707665
11	0x3dbda60a	0.09260185
12	0xbc08d791	-0.008352176
13	0xbc4a353c	-0.012341794
14	0xbd75f0f5	-0.060044248
15	0xbe485b2a	-0.19566026
16	0x3af68845	0.0018808922
17	0x3e3cec92	0.1844962
18	0x3e8c47e1	0.2739859
19	0x3dfeb2d4	0.124364525
20	0x3d1418e3	0.036156546
21	0x3dbd0557	0.09229534
22	0xbc6f8df7	-0.014621249
23	0xbca7476f	-0.020419804
24	0x3de4d877	0.111741
25	0xbde83fbc	-0.11340281
26	0xbe035305	-0.12824638
27	0xbda526cd	-0.08064041
28	0xbda43738	-0.08018345
29	0x3e26640c	0.16249102
30	0x3d7a0a14	0.061044767
31	0xbdfb1118	-0.1225912
32	0xbe02c55f	-0.12770604
33	0xbc8dbeda	-0.01730292
34	0xbca118e6	-0.019665193
35	0xbc955538	-0.018229112
36	0x3dcf2474	0.10114375
37	0xbb405fd5	-0.0029353995
38	0xbe8670a3	-0.2625781
39	0xbdf1fdb6	-0.1181597
40	0x3d89fecd	0.067380525
41	0xbe5333c1	-0.20625211
42	0x3e1cae15	0.15300782
43	0x3e1075b3	0.14107399
44	0x3e435588	0.19075596
45	0x3dc19b34	0.09453431
46	0xbe6222b4	-0.2208355
47	0x3dc76fe9	0.09738142
48	0xbcd912cb	-0.026498219
49	0xbe1df26d	-0.1542451
50	0x3d86ff4e	0.06591664
51	0x3e28cf81	0.16485406
52	0xbccae264	-0.024766155
53	0x3d339081	0.04383898
54	0xbe23e275	-0.16004355
55	0x3d6d8351	0.05798656
56	0xbdde2dae	-0.108485565
57	0x3e3a0cd2	0.18168953
58	0x3c46c148	0.012131043
59	0x3e8c3f60	0.273921
60	0x3e100786	0.1406537
61	0xbdc065c2	-0.09394409
62	0xbc13169d	-0.008977559
63	0xbdb262c2	-0.08710243
64	0xbe679d94	-0.22618705
65	0xbe3c39a7	-0.18381368
66	0xbe0f0565	-0.13966902
67	0xbe60dbd3	-0.21958856
68	0xbebaabc2	-0.36459166
69	0xbce64d51	-0.02811304
70	0x3be87263	0.007093714
71	0xbe8152bd	-0.25258437
72	0x3d8b1009	0.06790168
73	0xbcbc9355	-0.023019472
74	0x3e0ee484	0.1395436
75	0xbe285b94	-0.16441184
76	0xbd83cc24	-0.06435421
77	0xbde4d8a6	-0.11174135
78	0xbed813ee	-0.42202705
79	0xbe85300a	-0.26013213
80	0xbe6e01f7	-0.23242937
81	0x3d4e5282	0.050371654
82	0x3d333725	0.04375376
83	0xbd2fa7ba	-0.042884566
84	0x3e9944a2	0.29935175
85	0x3d2f1887	0.042748
86	0xbe00cc43	-0.1257792
87	0x3e6ca996	0.23111567
88	0x3e2d3068	0.16912997
89	0xbc80b97c	-0.015713446
90	0xbde886dd	-0.11353848
91	0xbdb6a4b6	-0.08918135
92	0x3cd3eae8	0.025868848
93	0x3c63ec94	0.013911385
94	0x3e6f7686	0.23385057
95	0x3e2e2a41	0.17008306
96	0xbd9a2cae	-0.07528053
97	0xbcc03a14	-0.023465194
98	0x3e026b45	0.12736233
99	0xbb791a7a	-0.0038010166
100	0xbafce6c1	-0.0019294844
101	0x3dd91721	0.106001146
102	0x3df2e766	0.11860542
103	0xbeb03795	-0.34417406
104	0x3e791a2b	0.24326389
105	0x3e971932	0.2951141
106	0x3d8f1a2a	0.06987412
107	0x3d741b93	0.05959661
108	0xbd9dafd5	-0.07699553
109	0xbc137ef2	-0.009002434
110	0x3da6cab8	0.08144134
111	0xbc9a39f4	-0.018826462
112	0xbd95d6fe	-0.07316397
113	0xbe4abb14	-0.19797927
114	0xbd5ab71c	-0.053397283
115	0x3dfe3d04	0.124139816
116	0x3d6e24d1	0.05814058
117	0xbe59bfbd	-0.21264549
118	0xbe969a2c	-0.294145
119	0xbe79300c	-0.24334735
120	0xbc29420c	-0.010330688
121	0xbe2cf07b	-0.16888611
122	0xbebad77d	-0.3649253
123	0x3d1fbe05	0.038999576
124	0x3d60df96	0.05490073
125	0xbaa9ad7c	-0.0012945379
126	0x3d3a7878	0.045525044
127	0xbe49fe83	-0.19725995
128	0xbd470ecb	-0.048598092
129	0xbd6e881c	-0.058235273
130	0xbe676d9b	-0.22600405
131	0xbe97ebe5	-0.2967216
132	0x3d35bbf1	0.044368688
133	0xbcd18cbc	-0.025579803
134	0xbe415f66	-0.18884048
135	0x3dd70d6e	0.105006084
136	0xbe960003	-0.29296884
137	0xbdc0d18a	-0.094149664
138	0xbd2f3dfc	-0.042783722
139	0xbd2705e9	-0.04077712
140	0xbd99ab18	-0.07503337
141	0x3e4d7f2c	0.20068043
142	0x3e542d5c	0.20720428
143	0xbd4a2b07	-0.04935744
144	0xbdb2c357	-0.08728664
145	0xbe5b2f7b	-0.21404831
146	0xbcdec92c	-0.027195536
147	0xbb864867	-0.0040979865
148	0xbedd696a	-0.43244487
149	0xbe02830d	-0.12745304
150	0xbd3f373c	-0.046683535
151	0xbd269419	-0.04066858
152	0xbdf5df8d	-0.120055296
153	0x3e130229	0.14356293
154	0x3e27a71b	0.1637234
155	0xbc997e41	-0.01873696
156	0xbc00bcce	-0.007857515
157	0x3c820362	0.015870754
158	0xbe174578	-0.14772594
159	0xbd8fce6f	-0.07021796
160	0xbe2e45da	-0.17018834
161	0xbe123dc2	-0.14281371
162	0x3e5f4a8e	0.21805784
163	0xbdcfa717	-0.10139292
164	0xbce70e2f	-0.028205005
165	0x3de4ce84	0.11172202
166	0xbe36f9dd	-0.17868753
167	0x3d4921f9	0.049104664
168	0xbd0c06fa	-0.03418634
169	0xbd9ae9ce	-0.07564126
170	0x3cbe04ab	0.023195585
171	0x3e79b5fd	0.2438583
172	0x3e2a0e38	0.16606987
173	0xbe50507d	-0.20343204
174	0xbe485562	-0.19563821
175	0xbdef9faa	-0.117003754
176	0xbc484c2d	-0.012225193
177	0xbdb7d869	-0.08976824
178	0xbda27164	-0.07931784
179	0x3e30c43d	0.17262359
180	0x3e2f7325	0.17133768
181	0x3e0b4e46	0.13604078
182	0x3e3f2dfb	0.18669884
183	0xbc517c88	-0.012786038
184	0x3dac54d0	0.08414614
185	0x3d831252	0.06399979
186	0xbcc83a65	-0.024441907
187	0xbc7a7613	-0.01528694
188	0xbe82f351	-0.2557626
189	0xbe9bb671	-0.3041263
190	0x3dfe0e97	0.124051265
191	0xbe41d0c2	-0.18927291
192	0xbdd8126e	-0.1055039
193	0xbe095a60	-0.13413382
194	0xbe06f0cd	-0.13177796
195	0x3e2f8ad1	0.17142798
196	0x3d9ff8fa	0.078111604
197	0xbde04faf	-0.109526984
198	0x3e6bebdd	0.23039193
199	0x3dc2b6a5	0.09507493
200	0x3da17beb	0.078849636
201	0xbca9edd6	-0.020743292
202	0xbd9c16a2	-0.07621504
203	0x3e2aa380	0.16663933
204	0xbe19eadf	-0.15031002
205	0xbe9a5ea9	-0.30150345
206	0x3d9aa12a	0.07550271
207	0xbe13ab48	-0.14420807
208	0xbe31951e	-0.1734204
209	0x3d22b497	0.039723005
210	0xbc36f427	-0.011166609
211	0x3e2b78c2	0.16745284
212	0x3dcbc2df	0.09949278
213	0xbcb19995	-0.021679679
214	0x3d9fc092	0.07800402
215	0x3d257107	0.040390994
216	0xbe95e2e4	-0.29274666
217	0xba8c782c	-0.0010716966
218	0xbd56a1c9	-0.052400384
219	0xb9bd22d5	-0.0003607484
220	0x3cb75598	0.022379681
221	0xbe247948	-0.1606189
222	0x3d337e16	0.043821417
223	0x3c9c61a3	0.019089526
224	0x3e569ea8	0.2095896
225	0x3de09197	0.10965269
226	0x3e1fd464	0.15608364
227	0x3d971b6f	0.073782794
228	0xbd86c113	-0.06579795
229	0x3d4afd3f	0.04955792
230	0xbd8be40d	-0.068306066
231	0xbb231714	-0.0024885582
232	0xbda169df	-0.078815214
233	0xbeedcf78	-0.4644735
234	0xbea3c1cd	-0.31983796
235	0x3eb04c0d	0.34433022
236	0x3d91838f	0.07105171
237	0xbe8c6199	-0.2741821
238	0x3e0f32ec	0.13984269
239	0x3e21403a	0.15747157
240	0x3dd9e83d	0.10639999
241	0x3da17e97	0.07885473
242	0x3e1b48ec	0.15164536
243	0xbd620a3b	-0.055185538
244	0x3e0267b1	0.12734868
245	0xbdb5d083	-0.08877661
246	0xbd9558ca	-0.07292326
247	0xbd166f8b	-0.03672747
248	0xbe03b8a5	-0.12863405
249	0x3e43cd56	0.19121298
250	0x3e1b4107	0.15161525
251	0x3e9b3dc2	0.30320555
252	0xbddc066f	-0.107434146
253	0x3c979b33	0.018506622
254	0x3e985520	0.29752445
255	0x3c2623fb	0.010140414

layer3.0.bias f4 [64]
0	0x3de6f701	0.11277581
1	0x3d0d6278	0.034517735
2	0x3e626250	0.22107816
3	0xbd7468b7	-0.059670176
4	0xba94d65e	-0.001135539
5	0x3c37bbba	0.011214191
6	0xbe5e09ff	-0.216835
7	0x3ec15337	0.377588
8	0x3d9e8088	0.07739359
9	0xbe0b77a0	-0.13619852
10	0x3dedf279	0.116185136
11	0xbd7654ca	-0.060139455
12	0xba203cc3	-0.000611257
13	0x3e236223	0.15955405
14	0x3db5d254	0.088780075
15	0x3cc9b64b	0.024623057
16	0xbd37a1a3	-0.044831883
17	0x3e4942bf	0.19654368
18	0xbe134b1f	-0.14384125
19	0x3dc3cf0e	0.09560977
20	0x3db0ded3	0.0863625
21	0xbc1af246	-0.009457177
22	0xbd569157	-0.0523847
23	0x3e641e99	0.22277297
24	0x3d09045a	0.033451416
25	0x3e59dabc	0.21274847
26	0xbd9f839a	-0.07788773
27	0xbd8fe5f8	-0.07026285
28	0x3dad3d2c	0.08458933
29	0x3ea3e21a	0.3200844
30	0xbd7b2312	-0.061312743
31	0xbe6da8b8	-0.23208892
32	0xbeb1cb6a	-0.34725505
33	0xbc5c60e9	-0.01345084
34	0xbe9dfddd	-0.30857745
35	0xbdd41d25	-0.103571214
36	0x3eb326af	0.3499045
37	0xbdfcf740	-0.12351847
38	0xbd6964b6	-0.05698081
39	0xbddeb6bf	-0.108747
40	0xbe42f790	-0.1903975
41	0x3cd1362a	0.025538523
42	0x3d5bcb32	0.05366058
43	0x3db3f530	0.08787
44	0x3e287413	0.16450529
45	0x3ea15cea	0.315162
46	0xbdec5972	-0.11540498
47	0x3e77d258	0.24201334
48	0xbdac441c	-0.08411428
49	0xbd544fa3	-0.05183376
50	0xbc410328	-0.011780538
51	0x3d5b3418	0.053516477
52	0x3e4ef3ff	0.20210265
53	0x3d9ab887	0.07554727
54	0x3d41410f	0.047181185
55	0xbe7afc43	-0.24510293
56	0x3e0610ff	0.13092421
57	0xbd39f111	-0.045395914
58	0x3dc7dcc3	0.09758904
59	0xbd851766	-0.064986035
60	0x3d26bc60	0.040706992
61	0x3d8242eb	0.0636042
62	0xbe3f6685	-0.18691452
63	0x3e113073	0.14178638

layer3.2.weight f4 [64, 64, 3, 3]
0	0xbeb1a98e	-0.34699672
1	0xbc2b71e4	-0.010464165
2	0xbd37029c	-0.044680223
3	0x3b8dcace	0.0043271547
4	0xbd1a1400	-0.03761673
5	0xbe17a1cc	-0.14807814
6	0x3dc57742	0.09641887
7	0xbac9885f	-0.0015375725
8	0x3e02b23e	0.12763306
9	0x3c2a9641	0.0104118
10	0x3e4634a4	0.19356018
11	0x3e84c317	0.25930092
12	0x3e568011	0.20947291
13	0xbe3b7e94	-0.18310004
14	0x3d5cd20f	0.053911265
15	0x3e579b32	0.21055296
16	0xbe50a4ee	-0.20375416
17	0xbd1287d4	-0.035774067
18	0x3e7684c5	0.24074085
19	0xbe010d30	-0.12602687
20	0x3e00972f	0.12557672
21	0xbbbbb732	-0.0057286257
22	0xbc4c97fe	-0.01248741
23	0x3dac931a	0.08426495
24	0x3d023f6f	0.031798776
25	0xbd4d044b	-0.050052922
26	0x3e6a16e7	0.22860299
27	0x3e10d97a	0.1414546
28	0x3d348c5b	0.044079166
29	0x3d94f378	0.072730005
30	0x3dafcce1	0.085839994
31	0x3d747e41	0.059690718
32	0x3e0ba3e4	0.13636738
33	0x3e03d429	0.12873901
34	0x3d198019	0.03747568
35	0xbdc6e7d0	-0.097121835
36	0x3d2b5dbd	0.041837443
37	0xbe0f6d57	-0.14006554
38	0xbdc9bb82	-0.098502174
39	0x3bc6d996	0.0060684187
40	0xbd03b1d9	-0.03215203
41	0xbd8e1458	-0.06937474
42	0x3e0b224e	0.13587305
43	0xbdc6468a	-0.09681423
44	0x3e094d73	0.13408451
45	0x3c236467	0.009972668
46	0x3dd0cc9e	0.10195278
47	0xbe066854	-0.13125736
48	0x3c8a5324	0.016885348
49	0xbe63c7c8	-0.22244179
50	0x3e93779a	0.28802186
51	0x3d0fb84b	0.035087865
52	0xbe2bcd44	-0.16777521
53	0xbe4d4df2	-0.20049265
54	0xbd0d4bd6	-0.03449615
55	0x3e422853	0.18960695
56	0x3d9da610	0.076976895
57	0x3d12a8fb	0.035805684
58	0x3ded07df	0.11573767
59	0x3e18a498	0.14906538
60	0x3d89eaeb	0.0673426
61	0xbe8fbf31	-0.28075555
62	0xbe0ddfdb	-0.13854925
63	0xbc0e066f	-0.008668526
64	0xbdd461ab	-0.10370191
65	0x3de9b584	0.114115745
66	0x3d8d5069	0.06900103
67	0x3d01a35f	0.031649943
68	0x3b82f608	0.0039966144
69	0x3cdfca1f	0.027318059
70	0x3e231bf8	0.15928638
71	0xbe236cd3	-0.15959482
72	0xbe7ed27c	-0.24884981
73	0xbdc7b104	-0.0975056
74	0xbdaa8020	-0.08325219
75	0x3d90b9dd	0.070667006
76	0x3dde88da	0.10865946
77	0x3d2badc9	0.04191378
78	0x3dd9a569	0.106272526
79	0xbddd8b51	-0.10817588
80	0xbe349030	-0.17633128
81	0x3e1723f4	0.14759809
82	0x3dbb81cf	0.091556184
83	0x3dc6bd34	0.097040564
84	0x3d89779a	0.06712265
85	0xbe2f1044	-0.17096049
86	0xbdf0a5e6	-0.117503926
87	0xbd9096a7	-0.07059985
88	0xbec725f0	-0.38896132
89	0xbe280621	-0.16408588
90	0x3db4763f	0.08811616
91	0x3d1162a0	0.035494447
92	0xbcea4dfb	-0.028601637
93	0xbdc9f242	-0.0986066
94	0xbd803365	-0.06259803
95	0xbdc78856	-0.09742801
96	0x3d6250bb	0.05525277
97	0x3e3fd9bf	0.18735407
98	0x3db0ad6d	0.08626828
99	0x3e0bd72e	0.13656303
100	0xbea7cbd6	-0.32772702
101	0x3da52533	0.08063736
102	0x3d8ebb12	0.069692746
103	0xbdb84d5c	-0.0899913
104	0xbe94415b	-0.28956112
105	0xbde1d2ad	-0.11026511
106	0x3e239f21	0.15978672
107	0x3cef3462	0.029199783
108	0xbd95eddb	-0.07320758
109	0xbd314a61	-0.043283824
110	0xbe339ebd	-0.17541023
111	0xbd3f6679	-0.046728585
112	0x3eaf78c8	0.34271836
113	0xbc1f6039	-0.009727531
114	0xbf03cf1e	-0.5148791
115	0xbe2e1f7e	-0.17004201
116	0x3ebba96f	0.36652705
117	0xbe6cad36	-0.2311295
118	0xbe1626c1	-0.14663221
119	0xbc99b3ee	-0.018762555
120	0xbd7be4e4	-0.061497584
121	0x3d610dc1	0.054944757
122	0xbd98c80b	-0.0746003
123	0xbe6fcb00	-0.23417282
124	0x3e06b9fc	0.13156885
125	0xbdcb520b	-0.09927758
126	0x3cd81021	0.026374878
127	0x3d927d87	0.07152849
128	0xbe816dba	-0.25279027
129	0x3dc20163	0.09472921
130	0xbd17a2e9	-0.037020598
131	0x3d45e458	0.04831347
132	0xbd52ac77	-0.051434007
133	0x3d1d7ad5	0.03844722
134	0xbe2b2419	-0.16712989
135	0x3d432e90	0.047651827
136	0xbd054206	-0.032533668
137	0xbd29eafd	-0.041483868
138	0xbc352a58	-0.011057459
139	0xbdcdf168	-0.1005581
140	0xbe131cd5	-0.14366467
141	0xbc86b1d5	-0.016442219
142	0xbda54330	-0.080694556
143	0x3d365a82	0.04451991
144	0xbd7c1040	-0.061538935
145	0xbddf9393	-0.109168194
146	0xbdf60e1c	-0.1201441
147	0x3d0753b4	0.03303881
148	0x3d7eebac	0.062236473
149	0xbde80cdc	-0.11330578
150	0x3e400ead	0.18755598
151	0x3e4d745b	0.20063917
152	0x3db43bba	0.088004544
153	0xbe06ce13	-0.13164549
154	0xbcf5140a	-0.029916782
155	0xbd2da5ca	-0.042394437
156	0xbdbf69c4	-0.09346345
157	0xbd5d2f3e	-0.05400013
158	0x3e335877	0.17514215
159	0xbdc06a03	-0.0939522
160	0xbd750a03	-0.059824
161	0xbe2ad15c	-0.16681427
162	0xbe806d09	-0.25083187
163	0xbe6a83a5	-0.22901781
164	0xbd5ef6b1	-0.054434482
165	0xbdce3561	-0.10068775
166	0xbdfe326d	-0.12411962
167	0x3e2186e5	0.15774114
168	0xbe512e58	-0.20427835
169	0xbc6cc967	-0.014452315
170	0x3e30e2f9	0.17274083
171	0x3e459f45	0.19299038
172	0xbd36e8ae	-0.044655494
173	0xbd214203	-0.039369594
174	0xbe835bd5	-0.25656
175	0xbe77c005	-0.24194343
176	0x3ca90aef	0.020635096
177	0x3e6c5574	0.23079473
178	0xbd8e3583	-0.069438
179	0xbe0966ea	-0.13418165
180	0xbd9a41c4	-0.07532075
181	0xbd15e998	-0.036599725
182	0x3d66cf6e	0.056350164
183	0xbd481de9	-0.04885665
184	0xbe2fc110	-0.17163491
185	0x3ca969e4	0.020680375
186	0x3d387025	0.045028824
187	0x38ac6693	8.220705e-05
188	0xbcec491d	-0.028843457
189	0x3b8ec604	0.0043571014
190	0x3c4a0c3a	0.012332017
191	0x3cd418f8	0.025890812
192	0x3d98e647	0.07465797
193	0x3da1195f	0.07866167
194	0xbbcbd25f	-0.0062201465
195	0x3e57ea98	0.21085584
196	0x3e59e20f	0.21277641
197	0x3dbb9eef	0.091611736
198	0xbd0f16d7	-0.03493389
199	0x3dba7673	0.09104624
200	0x3c6e3aa7	0.014540351
201	0xbd55cda1	-0.052198056
202	0xbe0ad12b	-0.13556354
203	0x3ddc9bb4	0.107718855
204	0xbd156e50	-0.036482155
205	0x3c81720a	0.015801448
206	0xbd121044	-0.035660043
207	0xbd85d375	-0.06534473
208	0xbd5c66c0	-0.053808928
209	0x3c43fdc5	0.011962359
210	0xbc6e40e5	-0.014541839
211	0x3e49243d	0.1964273
212	0x3cdb5770	0.026775092
213	0x3ce41390	0.02784136
214	0xbc9cac53	-0.01912514
215	0xbe0e6b14	-0.13908035
216	0x3c882470	0.016618937
217	0xbe06631f	-0.13123749
218	0x3e13b84b	0.14425771
219	0x3e571027	0.21002255
220	0x3dd796cf	0.10526811
221	0xbe67b70c	-0.2262842
222	0xbbc65c46	-0.0060534803
223	0x3e542c2f	0.2071998
224	0xbde86fb2	-0.11349429
225	0x3e0dfc93	0.1386588
226	0x3d494406	0.049137138
227	0xbdf140b8	-0.11779922
228	0xbd9a33f7	-0.07529443
229	0x3dead05a	0.11465521
230	0x3e497b81	0.19676019
231	0x3d3499e3	0.04409207
232	0xbdc9237b	-0.098212205
233	0x3c005565	0.00783286
234	0xbdf20cf5	-0.118188776
235	0xbe37a27c	-0.17933077
236	0x3d5a29b4	0.053262427
237	0x3e68d830	0.22738719
238	0xbe6f691a	-0.23379937
239	0x3da637f4	0.08116141
240	0x3ccbbef1	0.024871321
241	0x3ded3d1d	0.11583922
242	0xbdbfe910	-0.09370625
243	0xbd527a22	-0.051386006
244	0xbe68c823	-0.22732596
245	0xbe4995b3	-0.19686012
246	0xbe0ddf49	-0.13854708
247	0x3e47b775	0.19503577
248	0xbe384f0d	-0.17998905
249	0x3e494b3b	0.19657604
250	0x3e183655	0.14864476
251	0xbdf8c89c	-0.12147638
252	0x3c6623e5	0.014046644
253	0xbd84d48a	-0.06485851
254	0xbd9f50b4	-0.07779065
255	0x3c1e8465	0.00967512

layer3.2.bias f4 [64]
0	0x3d8afc15	0.06786362
1	0x3d0c7658	0.03429255
2	0xbde21c32	-0.11040534
3	0xbd7e511b	-0.062089067
4	0xbdb7d19d	-0.089755274
5	0x3d27a9c5	0.04093339
6	0x3e9bbe5b	0.30418667
7	0xbda1385a	-0.07872076
8	0xbd8724ed	-0.0659884
9	0x3e0c4a3b	0.13700192
10	0x3e838218	0.2568519
11	0xbd9fe8ec	-0.07808098
12	0x3d85bb54	0.06529871
13	0x3d809083	0.062775634
14	0x3d30991b	0.043114763
15	0x3e0b5a61	0.13608696
16	0x3e2e2463	0.17006068
17	0x3dae716e	0.08517729
18	0x3e39c7ff	0.18142699
19	0x3e3b87f8	0.18313587
20	0xbe28c698	-0.16482008
21	0x3cfbae8a	0.030722875
22	0xbdda2046	-0.10650687
23	0x3e3a019f	0.18164681
24	0x3e92d2a7	0.2867634
25	0x3e002b66	0.12516555
26	0xbd5c987c	-0.053856358
27	0xbd8c074b	-0.068373285
28	0xbb894248	-0.0041888095
29	0xbe578284	-0.21045882
30	0x3c73220d	0.014839661
31	0x3d334b71	0.04377312
32	0xbcf024b1	-0.02931437
33	0xbc74065f	-0.014894097
34	0xbdebd5a0	-0.11515355
35	0x3e44e6e1	0.19228698
36	0xbd74c7ed	-0.059760977
37	0x3deb095f	0.11476397
38	0x3dd6b623	0.104839586
39	0xbbc68b68	-0.006059099
40	0x3e7bb61c	0.24581188
41	0x3e73c321	0.23804905
42	0x3d87d32d	0.066320755
43	0x3e33c4b4	0.17555505
44	0x3c399a40	0.01132828
45	0xbcbe10b5	-0.023201326
46	0x3b7ac6c0	0.0038265437
47	0x3e0df362	0.13862374
48	0xbdfed9be	-0.12443875
49	0x3e70098a	0.23441139
50	0xbc37045e	-0.011170475
51	0xbca4177c	-0.02003073
52	0xbde10d96	-0.109889194
53	0xbd80955f	-0.0627849
54	0xbdf228ed	-0.11824212
55	0x3e342f4b	0.17596166
56	0xbd2711cd	-0.04078846
57	0x3cf9ce4e	0.030493882
58	0xbe1a8cf8	-0.15092838
59	0x3e36d8ef	0.17856191
60	0xba1d1a88	-0.0005993028
61	0x3e5820c3	0.21106248
62	0xbde8a5cb	-0.113597475
63	0xbe350b22	-0.17680028
