model_m1.ckpt (torch_old, 150404 bytes, 10 tensors)

layer1.0.weight f4 [16, 3, 3, 3]
000000 c0 46 03 3e 69 7d 58 bd 69 c4 9d be de 3b a4 3d
       0.12819958 -0.052853975 -0.30813912 0.08019231
000010 a4 9c a6 3e bc cc 09 3f 26 a5 d2 3e 8b f3 ec bd
       0.32541382 0.53828025 0.41141623 -0.1156989
000020 e8 fc f2 bd 94 d6 58 3d bd ba bf bd ed 68 b9 bc
       -0.11864644 0.052939013 -0.093617894 -0.02263304
000030 f3 26 e4 be 5d f6 8c 3d da 0f ce bd e7 9b 67 3d
       -0.44560966 0.068829276 -0.10061617 0.056545164
000040 a2 7b 95 bd 80 6c d6 be 07 26 f3 be 4e ce 2f 3f
       -0.07298972 -0.41879654 -0.4748995 0.6867417
000050 3b 16 d5 3e af 71 66 be c3 aa 10 bf b5 70 04 3d
       0.41618523 -0.22504304 -0.5651056 0.03233405
000060 2a 64 a4 3e 33 90 d2 be 95 f3 f7 bd 4e bc a0 3e
       0.3210767 -0.4112564 -0.121070065 0.31393665
000070 db 8d b4 3e ba 12 d2 3e 79 89 0d 3e 24 a8 02 3e
       0.35264477 0.41029912 0.13821973 0.12759453
000080 4a 7a 61 3d b6 5f 9c 3e cb be 89 be 98 fc fe 3d
       0.055048265 0.30541772 -0.26903376 0.12450522
000090 20 af fb be f9 7f ac be a1 e3 bd bd 93 8d 1f 3f
       -0.49157047 -0.33691385 -0.092719324 0.623254
0000a0 02 09 50 bf 26 6c c7 be 9a eb a3 be a3 05 21 bf
       -0.81263745 -0.38949698 -0.32015687 -0.62899226
0000b0 c4 9e dd 3d 39 48 c9 3d f0 5f b0 3e 5c 2f be 3c
       0.10821298 0.098282285 0.34448195 0.023215942
0000c0 6f ea 86 3d 6c a7 bc bd d8 aa 3d 3d 56 38 4e 3f
       0.065876834 -0.09211621 0.046305507 0.8055471
0000d0 65 53 f9 be 19 53 a4 3d 5b 4a af be c1 66 81 bd
       -0.48696437 0.08023662 -0.34236416 -0.06318427
0000e0 b8 33 0c 3f da 6f 3d be 40 6e a1 3e 93 99 4f 3e
       0.54766417 -0.18499699 0.31529427 0.20273428
0000f0 14 30 ea be 20 f2 25 3e 60 6b 49 3e 68 42 c9 be
       -0.45739806 0.16205645 0.19669867 -0.39308476
000100 10 63 81 3c ce c5 0e 3e 3c f1 86 be 1d 42 ed 3c
       0.015794307 0.13942644 -0.26355922 0.02896219
000110 99 54 bf 3e 2d 63 00 bf 59 47 90 be 58 34 12 3e
       0.3736923 -0.5015133 -0.28179434 0.1427778
000120 70 c5 b0 3e 40 bc 0c 3e 33 90 e1 bd b9 44 f1 be
       0.34525633 0.13743687 -0.11013832 -0.47122744
000130 f5 d3 a0 bd f8 ca 8f be e0 fa c4 3e b0 d3 04 be
       -0.078529276 -0.2808454 0.38472652 -0.12971377
000140 44 bd 0b 3f e0 57 5a 3e f6 38 02 3d 6d 51 a8 bc
       0.5458567 0.21322584 0.031792603 -0.02054664
000150 d1 c3 03 3e 5b 93 f7 be 7a e7 cd 3e 49 20 96 be
       0.12867667 -0.4835461 0.40215665 -0.29321507
000160 cd c9 21 be a5 65 3c 3d 73 68 c3 3e 8e e8 7b 3d
       -0.15799637 0.045995373 0.38165626 0.06150108
000170 11 3b ef be e0 d2 fb bd 6c 55 62 be 79 36 fa 3e
       -0.46724752 -0.122960806 -0.22102898 0.48869684
000180 65 06 b5 3d a7 8f 36 3f 77 63 2f be 95 54 b8 be
       0.0883911 0.71312946 -0.17127787 -0.3600203
000190 56 ce 71 3e 85 31 b7 bd ed 20 cb be 37 ee a9 be
       0.23613867 -0.08944992 -0.39673558 -0.33189556
0001a0 5d d7 83 3e 0b c2 c3 be e7 f4 d6 3e f7 94 aa bd
       0.25750247 -0.3823398 0.4198372 -0.08329194
0001b0 f3 6c 1b be c3 76 68 3e c9 a7 94 bd a0 30 74 be
       -0.1517828 0.22701554 -0.07258565 -0.23846674
0001c0 e1 5d 44 3f a2 bf 37 3e 79 8c f4 bd d1 75 fe be
       0.7670575 0.17944196 -0.119408555 -0.49699262
0001d0 d6 64 60 3d 30 37 4f be 44 35 e7 3e f2 ce 0e bf
       0.054783665 -0.20235896 0.45157826 -0.55784523
0001e0 95 49 e8 bc 06 9c c2 3e b6 44 1e bf 75 37 81 be
       -0.0283554 0.3800966 -0.61823595 -0.25237623
0001f0 27 41 fb 3e 08 c1 99 3e 9f 53 52 3e e3 3a aa 3e
       0.49073145 0.30030084 0.20539711 0.33248052
000200 25 12 18 be 73 ca 25 be 4a 63 ea bd ec 18 5d 3e
       -0.14850672 -0.1619051 -0.11444719 0.21591538
000210 62 1a b3 be c0 20 c1 3c f5 f1 65 bc 78 ee 40 3e
       -0.34981066 0.023575187 -0.014034738 0.18840969
000220 cf b5 a3 3d 31 56 39 3e ec 36 9f be d3 f1 b8 be
       0.079936616 0.18099286 -0.3109659 -0.36121997
000230 82 e6 fa be 67 c0 85 3e f7 26 87 3e 81 77 1a 3f
       -0.49003989 0.26123354 0.26396915 0.603386
000240 ea 5d 31 be 16 ba 1d 3e aa 2a be bd 72 f0 46 be
       -0.17320982 0.15403017 -0.09285481 -0.1942766
000250 9d 65 d4 be cc 11 8f be 54 2a a0 bb 4e b3 a4 3d
       -0.41483775 -0.27943265 -0.0048878584 0.08042012
000260 cd 43 1f 3f 96 c7 1f 3d ca 87 9c 3e 5f 95 0e be
       0.6221283 0.0390087 0.3057235 -0.13924168
000270 9c a9 ef 3d 2a cd 0d bf 82 84 58 3b 00 06 4d bc
       0.11702272 -0.5539118 0.0033037965 -0.012513638
000280 42 ef 24 3e bd a4 b0 bc 2c 17 e7 bd d8 53 62 3f
       0.16106895 -0.021562928 -0.112837166 0.88409185
000290 aa 20 25 3e 39 1e 31 3d b6 36 09 3d 68 43 41 be
       0.16125742 0.043241713 0.033499442 -0.1887337
0002a0 b5 ff 8b 3e f0 eb 97 be d9 3a 92 3e 61 07 af bc
       0.27343526 -0.29672194 0.28560522 -0.021365823
0002b0 a9 89 63 3d c5 8f 07 be 03 00 1e 3e f6 1d b1 3e
       0.055551205 -0.13238437 0.15429692 0.3459317
0002c0 9b 25 a6 bb be 9e 7e bd dd 0b d8 bd 12 73 b7 3d
       -0.005070401 -0.062163107 -0.10549138 0.08957495
0002d0 ad d7 32 3e 4e 85 18 be 11 e4 5a be 5e 59 06 bf
       0.17465086 -0.14894602 -0.21376063 -0.52480114
0002e0 e0 61 6c be e9 a9 1c be af 8a ab be 68 78 35 3e
       -0.23084211 -0.1529919 -0.33504245 0.17721713
0002f0 41 c5 cb bc c5 b6 08 be 63 d9 e6 3e 34 98 b1 be
       -0.024874331 -0.13350971 0.45087728 -0.34686434
000300 28 c1 81 3e ad 9a d2 3a 1f 78 c1 be 27 dc 19 3e
       0.2534268 0.0016067825 -0.37786958 0.15025388
000310 e5 b7 46 3c f7 a9 27 be 3a 29 1b bf 1c a6 db 3e
       0.012128805 -0.1637343 -0.6060978 0.4290017
000320 fd f8 d7 be c6 0d 8c 3e 75 ac 30 be 75 de 5b 3e
       -0.4218215 0.27354258 -0.17253287 0.2147158
000330 7b 1e 48 bf ad 85 03 be 06 41 e2 3c 40 e7 ec 3d
       -0.7817151 -0.12843962 0.027618896 0.11567545
000340 9a 66 29 3f 0b 6d cb be b1 6f 73 3d fb 18 3a 3e
       0.6617218 -0.3973163 0.05943269 0.18173592
000350 e5 14 44 3e ca 23 0f 3e 1e 5c fe 3e b0 00 42 be
       0.19148596 0.13978496 0.49679655 -0.18945575
000360 cf 00 64 3e 2b 40 c6 be 22 9d 11 3f 22 d7 7a 3e
       0.22265933 -0.3872083 0.5688039 0.24496129
000370 74 4c 94 3d b9 f2 14 3e da dd 5b be 8c de d1 3d
       0.07241145 0.14545716 -0.21471348 0.102475256
000380 da 71 88 3e c2 7e 9a 3c 85 d7 21 bd 73 0a 1a 3e
       0.26649362 0.018859271 -0.039512176 0.15043049
000390 7f 77 94 3e d6 cc ea be 6c b3 c1 3d cc ff bd be
       0.28997418 -0.45859402 0.0945805 -0.3710922
0003a0 04 a5 e1 bd 17 a5 a3 be 6b 20 d7 be e9 27 b2 be
       -0.11017802 -0.3196189 -0.4201692 -0.34796074
0003b0 0c 09 d6 3e 82 8c 7e 3e 14 05 02 bf dc 95 2b 3e
       0.41803777 0.24858287 -0.50789 0.16756386
0003c0 32 24 eb be 82 3a ee 3d 9c f2 91 3e 1e b0 6f 3e
       -0.45926052 0.11632253 0.2850541 0.23407027
0003d0 4d c5 b1 bc cb fa 39 be d0 5e 0a 3f c1 19 08 3d
       -0.021700526 -0.18162076 0.5405092 0.033227686
0003e0 39 46 7f be 63 7f 2f 3f 8a 7b 8c be 2b 48 46 be
       -0.24929132 0.6855375 -0.27438003 -0.19363467
0003f0 5b 5c 3b 3d 04 54 85 3e 6f 1e 79 be 7f 5f e3 3e
       0.045742374 0.2604066 -0.24328016 0.44408795

layer1.0.bias f4 [16]
000000 de c8 d4 bd 3a 40 4b 3e 3b 0e 86 bc c9 97 89 bd
       -0.10389875 0.19848719 -0.016364207 -0.06718404
000010 5c bc 08 3d 3a 5a e5 3d 2b 6f 22 3e b9 de 8c 3e
       0.03338276 0.1119885 0.1586272 0.27513674
000020 fe dc 98 3d 01 35 5b 3d 71 4b c7 bd ea 0c 91 3d
       0.07464026 0.053517345 -0.09731186 0.07082541
000030 f7 dc 82 bd bd a5 ed bd ad 93 e2 bd d0 0e f2 bc
       -0.06389802 -0.11603878 -0.11063323 -0.029548079

layer1.2.weight f4 [16, 16, 3, 3]
000000 31 6d 9d 3d a8 6f ca 3c ff fc 36 3d 57 0c 1e 3d
       0.07686842 0.024711445 0.04467487 0.038585987
000010 75 5d 0c be a5 fb 03 be ce 0d e7 bd ab 2f 60 3e
       -0.13707526 -0.12888964 -0.1128193 0.21893184
000020 91 0a af 3d 76 92 cd 3c 2e 31 44 be 5e 89 ee bd
       0.08546937 0.025094252 -0.19159386 -0.116472945
000030 57 98 04 3d 20 00 2e be 73 fd e2 be 03 4c 82 be
       0.032371845 -0.16992235 -0.4433399 -0.25448617
000040 3f 26 35 be 23 21 7b 3d b6 02 84 bc 0a 57 8f bc
       -0.17690371 0.0613109 -0.016114574 -0.017497558
000050 2e 02 a7 3e 7c a7 41 3e a8 3a b1 3d c6 90 ed bd
       0.3261885 0.18911546 0.08653766 -0.11599879
000060 6a cb 3a 3e be 7e b7 bc 55 58 a3 3d 92 78 da bd
       0.18241659 -0.022399303 0.079758324 -0.10667528
000070 3e 8b 86 3c dc 20 71 be 96 57 e8 bd c5 f7 e8 3c
       0.016423818 -0.23547691 -0.11344831 0.028438458
000080 e2 a9 e9 3d dc e5 e7 3e 9b c4 02 bd c7 e5 5a be
       0.11409356 0.45292556 -0.03192578 -0.21376716
000090 ab 67 04 be 16 ee 80 3d c6 c4 cb bd 25 6c 30 bd
       -0.12930171 0.06295411 -0.09949641 -0.043071885
0000a0 b1 0f 3d bd 67 fc 1e be 78 68 9e bd ed 72 70 be
       -0.046157543 -0.15525971 -0.077347696 -0.2348134
0000b0 7b 7c e9 bd b3 f4 2f be 29 aa b5 3d 3a 24 8c 3d
       -0.11400696 -0.17183189 0.08870346 0.06842847
0000c0 c7 84 88 3e 6a 40 04 3e 66 4c 5d 3e 1f cf aa 3e
       0.266638 0.12915197 0.21611175 0.33361146
0000d0 48 8f f8 3d c1 07 d3 3d c8 9f 1d be 2a 27 33 be
       0.12136704 0.10304213 -0.15392983 -0.17495409
0000e0 5e c0 18 be e0 76 a1 3d d1 49 a6 be 06 f6 fa 3d
       -0.14917132 0.07884002 -0.32478192 0.122539565
0000f0 54 19 17 3e 07 27 82 bd d6 55 e3 bd 5b fd 30 3e
       0.14755756 -0.063551 -0.11100356 0.17284147
000100 85 cc 4b 3e 1a 32 39 bb b5 f7 02 3e cd a6 2b be
       0.19902237 -0.0028258623 0.12789805 -0.16762848
000110 e1 0b 1a 3d 23 05 0a be f6 fe 2f be de b9 f1 3d
       0.037608985 -0.13478522 -0.17187104 0.118030295
000120 04 b4 d0 3d c4 80 2b be 6f 50 fc 3d 79 63 09 3e
       0.10190585 -0.16748339 0.12320029 0.13416852
000130 20 3d 61 3d bc 6d 68 be fd 2e 88 3d 38 af b8 bd
       0.054989934 -0.2269811 0.06649587 -0.09017795
000140 33 4f 36 3d 45 4b 2b 3d 73 c2 55 3d ad 00 c1 bd
       0.044509124 0.04181983 0.052187394 -0.09423957
000150 f0 fb af 3d 86 71 78 be 05 c2 62 3d 56 62 69 be
       0.08592975 -0.24262056 0.055360813 -0.22791418
000160 25 ea 85 bd 06 1c 6c 3d f5 76 87 3d 04 a2 93 3d
       -0.065388 0.057643913 0.06614486 0.072086364
000170 8c cc a0 bd 53 59 72 3e 2b f7 ae 3d ce 00 45 be
       -0.07851514 0.23666887 0.08543237 -0.19238588
000180 64 22 e2 bc be 45 61 be 57 35 86 be a3 ea 87 3e
       -0.02760429 -0.21999261 -0.2621257 0.265462
000190 01 09 c5 bd 89 9f a2 3d ab 95 59 bc 69 fb 3f 3e
       -0.09620858 0.07940585 -0.0132803125 0.18748249
0001a0 42 0c 26 be 32 07 03 3e 3b 5e bc bd 60 22 1b be
       -0.16215613 0.12795714 -0.091976605 -0.15149832
0001b0 19 a9 87 3e 64 6e 92 3d 3d 54 ba 3d 44 e2 f2 3d
       0.264962 0.071499616 0.090980984 0.11859563
0001c0 e6 4f 95 3b 03 7a f4 bd 32 69 86 be 98 79 67 bd
       0.004556644 -0.119373344 -0.26252133 -0.056512445
0001d0 1b 8f 01 be ff c9 f6 3d 3e ba ad bc e7 84 9c 3d
       -0.12652247 0.120502464 -0.021206971 0.076425366
0001e0 51 64 a1 3c a6 8d cd 3d f1 4c 85 3c b6 e9 fe 3d
       0.019701155 0.10036783 0.01627204 0.124469206
0001f0 38 ec 07 bc ba 53 bc 3e c6 80 75 bd b7 82 e9 3d
       -0.008296065 0.36782628 -0.05993726 0.11401885
000200 d9 e0 8f 3e e7 10 67 3d e1 a8 8a 3d 5c e8 23 3d
       0.28101233 0.056412604 0.06770492 0.040016517
000210 33 f2 da 3d 99 d2 04 3e 54 7d 33 3e 59 08 4b bd
       0.10690727 0.12970962 0.17528278 -0.049568508
000220 5e f6 5b be 54 86 24 3d d2 aa d0 3d 8c 99 e1 3d
       -0.214807 0.040167168 0.101888314 0.11015615
000230 cc 1e 54 3e f8 e6 cb bd 52 f3 25 3d 6e c3 18 be
       0.20714873 -0.09956163 0.04051525 -0.149183
000240 81 fb 8e 3d 7f a5 24 bd 92 a4 68 3e f7 a9 5a 3d
       0.06981564 -0.040196892 0.22719029 0.053384747
000250 b6 65 01 3e 6c 1c 68 be 3b fe c5 3c a7 f1 03 3d
       0.12636456 -0.22667092 0.024169078 0.03221288
000260 7a 58 aa 3d 38 64 40 be 9c da 9f be 14 13 ab 3e
       0.08317657 -0.1878823 -0.31221473 0.33412993
000270 4e f9 79 be 5f 25 09 be 6d 58 14 3e 2a 8c bb bd
       -0.24411508 -0.13393162 0.14486857 -0.091575935
000280 51 f1 0e 3c e0 c3 50 3e d7 01 47 3d a7 c3 a0 3d
       0.0087245265 0.2038722 0.04858574 0.07849818
000290 64 d2 49 be e4 59 2b be 24 b5 30 3e 2e 3b 92 be
       -0.19709164 -0.1673351 0.172566 -0.28560776
0002a0 e1 c3 23 3b 2f f4 f2 bc ec ad 97 ba e7 76 66 3e
       0.002498858 -0.029657451 -0.0011572219 0.22506295
0002b0 7f 5a 1c 3e 42 46 02 bf f2 78 cb 3d c4 e4 c2 bd
       0.15268897 -0.50888455 0.09935178 -0.0951629
0002c0 a8 2d e9 be 58 e6 72 3d 28 d6 83 3d c8 ab 3c be
       -0.45542645 0.059301704 0.064373314 -0.18424904
0002d0 15 2c 85 3e b6 92 99 3d 92 95 3c be 7c bc 83 be
       0.26010194 0.07498686 -0.18416432 -0.2572974
0002e0 b3 8e 1c 3e 86 b9 93 be 03 39 53 bd 9f b6 1d 3d
       0.1528881 -0.2885248 -0.051568042 0.03850424
0002f0 4f 6a f0 bd 34 58 86 3d d1 56 9a bd 33 15 6a bd
       -0.11739027 0.06559792 -0.0753609 -0.057149123
000300 45 73 1f 3d 4d 2d 30 be 02 af 18 3e c5 5a 3c bd
       0.03892829 -0.17204781 0.1491051 -0.045985002
000310 20 db 13 be 49 0e 14 be f3 de 0a bd 30 4c 76 3d
       -0.14439058 -0.14458574 -0.033904027 0.06013125
000320 68 96 ee bb 48 58 db 3c d2 46 f0 3d 86 cc c5 3c
       -0.0072811134 0.026775494 0.11732258 0.024145376
000330 c0 af bc 3c e9 25 16 3e cf 38 68 bd 10 f8 6b be
       0.023033023 0.14662899 -0.056694802 -0.23043847
000340 f6 0c cd 3d 07 e1 43 bd 49 6b 8b bd c8 7f b9 3e
       0.10012238 -0.047822025 -0.068075724 0.36230302
000350 47 55 c2 3d fc 98 1d be 96 44 27 be 44 0f 1d 3e
       0.094889216 -0.1539039 -0.16334757 0.15337855
000360 d6 25 3d 3e b4 d9 43 bc 51 3b 6c be e5 d1 cd 3e
       0.18471465 -0.01195376 -0.23069502 0.401992
000370 f6 d8 a4 bd fc 19 5f be f2 3c f9 bd a1 38 0d be
       -0.080491945 -0.21787256 -0.121698275 -0.13791133
000380 ec 64 41 be d1 b1 cf bd 55 c3 1f be 0f 17 d1 3e
       -0.18886155 -0.10141338 -0.15601857 0.40837905
000390 8f 92 d1 be 5e eb 50 3d 73 76 2f 3d 1a 7d 46 be
       -0.40932128 0.051005714 0.04283757 -0.1938366
0003a0 19 bb 22 3e 3e eb 0d be 15 bb 9c bc 7e 50 a1 b9
       0.15891685 -0.13859269 -0.019132176 -0.00030768284
0003b0 7d ce bb 3c ee dd 2f 3d bc 7a c9 be 0f ef 4f 3d
       0.02292561 0.042936258 -0.3935145 0.050765093
0003c0 30 34 44 be c4 76 94 bd e0 56 fd 3d 7b 42 ae bd
       -0.19160533 -0.07249215 0.12370086 -0.08508774
0003d0 e3 2b 0d be fd 1c 35 3e b0 ef ef 3d ef 29 8d bc
       -0.13786273 0.1768684 0.11715639 -0.01723191
0003e0 ad b9 92 bd 90 83 1c be 48 7f 0a 3d 0b 3e 0e be
       -0.07164321 -0.15284562 0.03381279 -0.13890855
0003f0 85 26 32 3e c1 b2 35 3e fe 71 7a 3c eb 3d 19 be
       0.17397507 0.1774397 0.015285967 -0.14965026

layer1.2.bias f4 [16]
000000 05 be 9e bc 41 10 b5 3d 04 e9 dc 3d 25 16 9b be
       -0.019377718 0.08840991 0.10786632 -0.30290332
000010 b0 85 5e 3d 87 f7 0e 3e 89 69 2a bd d5 f8 e9 bc
       0.054326713 0.13961612 -0.041604552 -0.028561035
000020 3f 0c 4d be 49 be 27 3e ec 98 aa 3e 0a 58 29 3d
       -0.20024203 0.16381182 0.33319795 0.041343726
000030 dc 92 bd bd 91 47 83 bc 2e f8 6c bd 69 c2 60 bd
       -0.09256527 -0.016025336 -0.05785387 -0.054872904

layer2.0.weight f4 [32, 16, 3, 3]
000000 7c c2 8a bd 26 63 57 bd 83 3d ba 3d 85 7b 9f be
       -0.06775376 -0.05258479 0.09093764 -0.31148925
000010 64 9f 27 be d5 57 a8 3d 33 3f a8 be 5d ba 51 be
       -0.16369396 0.08219878 -0.32860717 -0.20481248
000020 ad 58 4c 3e 5c bf 8e 3b bd e8 e3 3e 2f 4a 82 3e
       0.19955702 0.004356308 0.44513503 0.25447223
000030 a9 a8 0a 3e 08 56 b5 3e 4a b1 c9 bb b2 21 97 bd
       0.13540901 0.354172 -0.0061551677 -0.07379474
000040 ba a4 86 3e b8 2c 92 3e 41 65 c3 3e 38 50 c3 3d
       0.2629755 0.28549743 0.38163188 0.09536785
000050 b7 b0 c7 be 01 ea dd bd a5 57 2b be 4a fb f5 bd
       -0.3900201 -0.10835648 -0.16732652 -0.1201082
000060 12 b4 00 3e 4a 17 65 3e 4d 17 a8 be 6b ad f4 bc
       0.12568691 0.22372165 -0.32830277 -0.029867848
000070 b3 b9 17 3e fc c7 3c bc 2a c8 63 be f2 51 e7 bd
       0.14816932 -0.011522289 -0.22244325 -0.11294927
000080 7f dc 8e 3e 8a 4b d0 be a7 7b 8c 3d 9a 52 3a 3e
       0.279026 -0.40682632 0.06859522 0.18195572
000090 a6 bf 73 bc 86 c8 b4 bc 04 a0 82 be 79 ec 32 bc
       -0.0148772355 -0.022068273 -0.25512707 -0.010920637
0000a0 96 1b cf bc 8a aa 7e be e5 ec 0d 3e 1a 6c af bd
       -0.025281709 -0.24869743 0.138599 -0.085655406
0000b0 5a 60 bc 3d e8 4d 08 be 39 74 12 3d 8e d6 33 3e
       0.09198065 -0.13310969 0.03575537 0.17562315
0000c0 d6 be 8d bc 07 a7 88 bd 91 a7 60 3e e1 42 03 bd
       -0.017302912 -0.06672483 0.21938922 -0.032046203
0000d0 ad 3a 43 bd 66 97 56 bd 1a b5 a9 3d 19 06 00 3d
       -0.04766338 -0.05239048 0.082864955 0.031255815
0000e0 f2 6e 51 be a3 46 b1 3d f2 ed 7b 3d 52 38 3d bc
       -0.20452479 0.08656051 0.06150622 -0.011549072
0000f0 16 f6 4c 3d 3e 65 70 be 85 1f 88 be bd 41 22 ba
       0.050039373 -0.23476121 -0.26586547 -0.00061896053
000100 f6 fa 2f be f5 51 d0 3b 50 83 b0 bb 63 2d 97 3e
       -0.17185578 0.0063574263 -0.0053867474 0.29526815
000110 76 d9 10 3e 33 c1 ae 3c 96 aa 33 be a2 b3 29 bd
       0.14145455 0.021332359 -0.17545542 -0.041431077
000120 d3 1b 11 be 23 7f c1 be 34 be 0c bc 10 4e fe be
       -0.1417077 -0.3779231 -0.00859027 -0.49668932
000130 fe 66 5f 3e 0b 95 70 3d e5 6d 2f be ac fd ff bc
       0.21816632 0.05873589 -0.17131765 -0.03124889
000140 44 72 ce 3c 32 91 f1 bd 89 23 eb bd 97 60 0c be
       0.02520097 -0.11795272 -0.11481387 -0.13708721
000150 5b 55 82 3d 6b 3c bd bd 8b 36 e7 bd be 59 6e 3d
       0.063639365 -0.092400394 -0.112897 0.058191054
000160 9b 70 e2 bd de 17 aa be 3d fd 4e 3e 20 6e 24 be
       -0.11056634 -0.33221334 0.2021379 -0.16057634
000170 66 3f d3 be bf 17 e2 bc 41 0c e7 bd 97 f5 15 bf
       -0.41259307 -0.027599214 -0.11281634 -0.58577865
000180 58 65 43 bc 47 5f 3f be b1 10 11 bf 4a af 10 bd
       -0.011926018 -0.18688689 -0.56666094 -0.03532342
000190 e6 9c 12 3e f7 8e ee bd c6 d9 cc be b2 5a 80 be
       0.14317665 -0.11648362 -0.40009898 -0.25069195
0001a0 52 34 10 3e bc 89 d4 bb 71 ba 97 be 5c 48 58 3e
       0.14082459 -0.006486146 -0.2963443 0.21121353
0001b0 df 13 8c 3e 21 50 38 3e be 42 e2 3c fb 7b b2 be
       0.2735891 0.17999317 0.027619716 -0.34860215
0001c0 2e 92 c8 3e ff 6f 7b 3e 9a 22 ee bd e2 5f 36 3e
       0.39174026 0.24554442 -0.116276935 0.17810014
0001d0 2b 6f ef 3d 65 6d df bd 77 a6 9b bd ec 84 bb 3d
       0.116911255 -0.10909537 -0.0760011 0.09156212
0001e0 1b 26 62 3d 5d e9 8d bd 72 93 d1 bd 99 50 a4 3d
       0.05521212 -0.06929276 -0.10233201 0.08023185
0001f0 ff 3f 96 3d 70 fe 44 bd 97 11 84 bd a1 86 0d 3e
       0.07336425 -0.048094213 -0.064486675 0.13820888
000200 fc cf b9 be 35 54 a1 be e0 c1 7d be 0e 09 8f be
       -0.36291492 -0.31509557 -0.24780989 -0.27936596
000210 b2 1d 18 bd 80 37 e8 be 79 25 86 be 54 69 e2 bd
       -0.037137695 -0.45354843 -0.26200464 -0.11055246
000220 dc 99 3f 3d c9 77 4b 3e c0 e1 ca bd d5 d8 26 bd
       0.04677759 0.19869913 -0.0990634 -0.04073413
000230 41 e3 dc bd 9f af 30 3d 8b 7f 06 3d 00 06 d3 3a
       -0.10785533 0.043136235 0.03283648 0.0016099811
000240 f6 2b cb 3d ca f6 74 3d e5 61 c1 bc 59 f9 41 bc
       0.09920494 0.05980567 -0.02360625 -0.011839234
000250 3d 81 48 3e 5a 83 4b 3b 50 c8 2d bd 42 48 97 bd
       0.1958055 0.0031053633 -0.04242736 -0.07386829
000260 15 d1 73 be b4 fa ce bc f1 e5 6b 3c 11 a9 00 3e
       -0.23810227 -0.025266029 0.014398084 0.12564494
000270 1f 58 a5 be 5d 9d fd 3d 3c 28 86 be 47 4b 55 3d
       -0.32293794 0.1238353 -0.2620257 0.052073743
000280 47 10 09 bf 33 33 01 be be 67 04 3e 56 3f 98 bd
       -0.5354046 -0.12617187 0.129302 -0.07433955
000290 b7 16 1c be fa fc 3f be da 41 fe 3d 8c a5 8c 3e
       -0.1524304 -0.18748847 0.12414904 0.27470052
0002a0 e8 08 a5 3b a0 8a 23 3e fc eb 80 3d b4 16 b4 bc
       0.005036462 0.1597085 0.062950104 -0.021983482
0002b0 b3 23 03 be b2 12 52 bd a6 7b c8 bc 99 84 8c be
       -0.12806587 -0.05128736 -0.024473023 -0.27444914
0002c0 93 62 0a be 68 8a 06 3d 9d 0e f2 3b db e9 2d 3e
       -0.13514166 0.03284684 0.007386996 0.1698374
0002d0 80 21 28 be 30 9c 6e 3e 03 54 20 bc 02 c0 08 be
       -0.16419029 0.23301768 -0.009785655 -0.13354495
0002e0 35 11 4b bc fd 6e b2 3d 61 79 07 3e a0 a9 50 be
       -0.012394239 0.087125756 0.13229896 -0.20377207
0002f0 8a 3f dc bd 93 0b c3 bd 1e 3a 39 bd 5e af 1a bd
       -0.107543066 -0.09523692 -0.04522144 -0.0377649
000300 d4 34 34 3e 09 7e c9 3d 76 2f 0a 3e a1 cb 38 be
       0.17598277 0.098384924 0.13494667 -0.18046428
000310 2a d9 b3 3d 87 11 b3 bc 82 e6 e0 bb 38 eb 76 3d
       0.08781655 -0.021858944 -0.006863416 0.060282916
000320 3d 30 ed 3d bd 9e f8 3d 5d 5f 32 3e e1 c7 0c 3e
       0.11581466 0.12139652 0.1741919 0.13748123
000330 80 9b d8 3c 5d 38 dc bd dd 35 46 3e b5 b4 9c 3d
       0.026441336 -0.10752938 0.19356485 0.07651655
000340 20 56 9d 3e ad b3 42 3e 89 39 29 be 37 ab 9b ba
       0.3072977 0.19013853 -0.16525854 -0.0011876588
000350 c6 63 47 3e 59 72 17 bd d8 7f ba bc 84 59 d3 bd
       0.19471654 -0.036974285 -0.022766039 -0.10319808
000360 06 98 3f 3e 0d 2d 1a be 82 30 e8 3d de c7 1c 3e
       0.18710336 -0.15056248 0.11337377 0.15310618
000370 0f b6 44 3d e5 0b 99 3d fa 5f 1f 3e aa 03 56 bc
       0.048025187 0.07472972 0.15563956 -0.013062397
000380 14 c7 71 bb 80 37 81 be 8c 81 1f bc 0c 75 33 3e
       -0.0036892341 -0.25237656 -0.009735476 0.17525119
000390 d6 3f 95 3d 70 89 40 3e 70 11 40 3c c2 6b b2 3d
       0.07287566 0.18802428 0.011722907 0.087119594
0003a0 57 ac 13 3e 66 cd 7d be 87 a9 2f 3e 09 bc d4 bc
       0.14421211 -0.24785385 0.17154513 -0.025968568
0003b0 e1 12 a7 3d 6f 96 eb 3c 8d 7d ab bd 6f 85 48 be
       0.08157898 0.028758256 -0.08373556 -0.19582151
0003c0 e0 6c 65 3e b0 d2 17 3e 49 13 6c 3e f0 fe c9 3d
       0.22404814 0.14826465 0.23054232 0.098630786
0003d0 d9 0d 12 be a5 f8 1a 3e 92 51 9a bd e1 05 6e be
       -0.14263095 0.15133913 -0.075350896 -0.2324443
0003e0 6a 58 b5 bd 13 aa 3a 3e 42 e8 4e 3e 66 67 eb 3c
       -0.08854754 0.1822894 0.20205787 0.028735828
0003f0 87 fd 96 3d 17 57 c2 be 33 4a 9f bc 83 ac 19 3e
       0.07372575 -0.3795707 -0.01944456 0.15007214

layer2.0.bias f4 [32]
000000 0d c8 9a be 8f 18 1e 3d 8a cc e3 3e fd 0a 82 be
       -0.30230752 0.03859764 0.44491988 -0.25399008
000010 8f fd 3b 3c d1 a5 ed 3d ee 5c fd 3d 85 88 e6 bd
       0.011474027 0.116038926 0.123712406 -0.11256508
000020 56 5b ac bd e6 60 1e bc 9f 02 21 be f2 17 31 3e
       -0.084158584 -0.009666657 -0.15723656 0.1729429
000030 29 ba 05 bd 3a 03 0f 3e 96 d8 a0 bd b6 30 9a 3e
       -0.03264824 0.13966075 -0.078538105 0.30115288
000040 d1 c7 a7 3c 28 56 01 3e b6 15 90 bc f4 d0 1e be
       0.020481022 0.12630522 -0.017588478 -0.15509397
000050 07 91 4c 3d b8 34 4f 3e 86 05 6d 3d 8d c9 bc 3c
       0.049942996 0.20234954 0.057866596 0.023045326
000060 fa ac d3 3d 4d e7 91 3d 91 42 1a 3e 94 58 83 bd
       0.10335727 0.07124195 0.15064456 -0.06413379
000070 54 f3 96 3d 8e 24 78 be f3 3c 49 be 83 12 ae bd
       0.0737063 -0.24232695 -0.19652157 -0.084996246

layer2.2.weight f4 [32, 32, 3, 3]
000000 0f 06 ae bd 84 e1 41 3e 20 f2 7a be c0 73 68 3e
       -0.08497249 0.18933684 -0.24506426 0.22700405
000010 5e a4 07 be bb c3 d7 3e bb 7c c8 3c a4 c1 0c 3d
       -0.13246295 0.42141518 0.024473539 0.034364358
000020 f2 a6 b4 3e 21 01 f6 3d 0f 45 f3 3d 22 3c b8 3d
       0.3528362 0.12011934 0.11878406 0.089958444
000030 71 cc d5 3b 21 4d ad bd 02 a7 4b be fc 26 61 bd
       0.0065246155 -0.08461977 -0.19887927 -0.05496882
000040 20 5e 89 bd b9 17 af bd a2 fe bd bd b8 c1 85 be
       -0.06707406 -0.085494466 -0.09277083 -0.26124358
000050 08 e0 e9 3d f0 a2 8b be c1 b3 61 3e e5 aa 1f 3e
       0.11419684 -0.2727275 0.22041227 0.15592535
000060 b9 7a 40 3b 30 06 4c 3d a3 ed 39 3c d3 ae 4a bd
       0.0029370023 0.04981059 0.011348161 -0.04948313
000070 25 18 c0 3d 40 32 0b 3d c8 f7 c1 bd 84 99 80 bd
       0.09379605 0.03398347 -0.09471089 -0.06279281
000080 9a 8e 8e bd b1 3f cf 3d 0f 4d 12 be 6d 7d 8e bd
       -0.06960793 0.1011957 -0.14287208 -0.06957517
000090 5b e9 1e 3e 0d 26 d4 bd bd bd 83 be d2 39 97 3d
       0.15518706 -0.1035882 -0.25730696 0.07384075
0000a0 c2 cd d1 3c 6e 67 76 be a6 bb 09 bd f0 dc 9c bd
       0.025610808 -0.24062893 -0.03362622 -0.07659328
0000b0 4b d6 36 3d 9f 5b c9 b9 fe 32 7b be a2 0d 81 be
       0.04463796 -0.0003840597 -0.2453117 -0.25205714
0000c0 3e 21 d8 bd 46 58 63 be 3d 25 a3 bd 02 15 5b 3d
       -0.105532154 -0.22201642 -0.07966087 0.05348683
0000d0 04 f6 4e bd ca eb 7c 3e d3 b1 47 3e 75 01 fb bd
       -0.050527588 0.24699321 0.19501428 -0.12256137
0000e0 e1 f8 9e bb aa fb 5b 3e bd d2 64 3e 61 11 4c be
       -0.004851446 0.21482721 0.22346015 -0.19928505
0000f0 3d 56 70 3d 85 32 09 be b9 e9 c7 bd 4c 58 70 3d
       0.058675993 -0.13398178 -0.09761376 0.058677956
000100 37 c3 e3 bd 95 8f d7 be 1c fd 05 be e0 57 53 be
       -0.11121219 -0.42101732 -0.13084835 -0.2063899
000110 c6 0f 70 be f6 3d 67 3d 78 1e 51 bd c1 d0 33 3e
       -0.23443517 0.056455575 -0.051054448 0.17560102
000120 91 c9 43 3d 14 f1 ba 3c 8c ac d1 3b 2d 91 d8 ba
       0.04779965 0.022820033 0.006398743 -0.0016522758
000130 b6 b0 f1 3c a9 0a a6 bc cb f1 24 be fb 8d 9b 3e
       0.029503208 -0.020268755 -0.16107862 0.3038176
000140 ef 29 86 bd 87 e4 bb 3d 59 9f 4d 3d ec 88 e5 3b
       -0.06550967 0.091744475 0.050200794 0.0070048478
000150 8e bb c0 3a 5f 16 12 3d bd bf f1 bb 10 28 15 bc
       0.0014704333 0.035665866 -0.0073775933 -0.00910379
000160 96 21 30 be f9 40 b9 bc 5f 4e 76 3e 58 e1 80 be
       -0.17200312 -0.02261399 0.24053334 -0.25171924
000170 f0 4a 2e be 81 2e 8f 3e 42 df b8 be 41 e5 e7 be
       -0.17020774 0.27965167 -0.36107832 -0.45292094
000180 a5 60 3d 3e 16 a5 46 3e 03 81 23 be 63 b9 bd be
       0.18493898 0.19398913 -0.15967183 -0.370555
000190 0b 73 99 be d3 bd 01 bd f4 2d 7e be 36 4c 66 be
       -0.29970583 -0.03167517 -0.24822217 -0.2249001
0001a0 7e 11 e5 bd d1 cf 59 bc 15 76 0b be 55 d7 02 3e
       -0.11184977 -0.013294176 -0.13619263 0.12777455
0001b0 52 6d 10 3e e2 4e 79 3d 86 55 57 bd f4 cb 31 3e
       0.14104202 0.060866244 -0.052571796 0.17362958
0001c0 37 0f b6 bd df 4f 45 be 7c 88 a5 bd fb 60 f6 3c
       -0.08889621 -0.1926875 -0.08082673 0.03007554
0001d0 e1 eb 54 be 1e 67 6d bd ef 68 25 be 00 f9 cc bc
       -0.20793106 -0.05795967 -0.1615331 -0.025021076
0001e0 c0 6b 8a 3c 46 1e 6a be a3 ee 00 3e 10 7c 9b be
       0.016897082 -0.22863111 0.12591033 -0.3036809
0001f0 e6 ba 7f bc be f2 77 3d 5f 17 6f 3d a3 cc c2 be
       -0.015608525 0.06053423 0.058371898 -0.3804675
000200 a6 ff 42 be 5d 12 38 3e 47 e4 1d be 0d ee 94 bd
       -0.19042835 0.17975755 -0.15419112 -0.07271967
000210 ab dc 93 3c 8d 6c 45 3c e0 9e 5b bd 80 fb 9d be
       0.018049559 0.012049806 -0.053618312 -0.30855942
000220 0e af 6f 3d e9 63 18 3e 6d d6 9f be a2 00 6e bc
       0.058516555 0.14881863 -0.3121828 -0.014526518
000230 26 59 1e 3d be 9c de 3d b2 de 3b 3b 17 e2 3c 3e
       0.038659237 0.1086974 0.0028666672 0.18445621
000240 13 4d ff 3d 18 c5 ec bd f6 8f cf 3d 33 d9 8d be
       0.124658726 -0.1156103 0.1013488 -0.27704772
000250 37 03 83 bd fa eb 4d be 2e ff 0f be 85 19 1b 3e
       -0.063970976 -0.20109549 -0.14062187 0.15146454
000260 5b ea 3b 3d 8b 66 ec bc df 64 2e 3d cb 59 28 be
       0.045877796 -0.02885749 0.042576667 -0.16440503
000270 62 94 6c 3d 74 ad 1d 3d 25 8a 6a bd 0e 7b b3 bc
       0.057758696 0.038495496 -0.05726065 -0.021909263
000280 51 6e f6 3d 6f f4 9f 3c 01 f8 10 3e 4c ef 3c bd
       0.1203276 0.019525735 0.14157106 -0.04612665
000290 71 aa 39 3e 83 0d 5f 3e 99 cf 8a 3d fc c8 9a bd
       0.18131424 0.21782498 0.06777877 -0.07557866
0002a0 84 aa 78 3e cc 39 7a bc bb 37 34 be 8b b8 8c 3d
       0.24283797 -0.015272569 -0.17599384 0.06871136
0002b0 23 73 f0 3c 46 dc 98 3d 5f e4 b4 bd 68 a7 1f 3e
       0.029351776 0.07463889 -0.08832621 0.15591204
0002c0 79 5d 24 be d6 82 93 bd bd 70 0a be 0b 76 50 be
       -0.16051282 -0.07202689 -0.13519569 -0.2035753
0002d0 3d 85 ed 3d d6 07 32 bd 6e f0 6f be 34 09 22 3d
       0.11597679 -0.043464504 -0.2343156 0.039559558
0002e0 c7 2a f6 bc 42 51 8a bd 74 29 30 bd 37 37 f0 3d
       -0.030049695 -0.0675378 -0.043008283 0.117292814
0002f0 c9 f3 3f be a1 9f a4 3c aa b2 65 be 79 f1 cc 3d
       -0.1874534 0.020095648 -0.22431436 0.10006995
000300 69 6f 10 3e 38 48 ec 3d 67 27 b8 3a f7 6d ce 3b
       0.14105 0.11537212 0.0014049829 0.00629973
000310 74 8c a7 b7 d5 dc 84 bd d8 fc 62 be 38 5f a6 bd
       -1.9973355e-05 -0.06487433 -0.22166765 -0.0812363
000320 97 c7 8b 3c dd 71 a9 3d 76 e2 c3 3d 4c 3d 34 3a
       0.017062945 0.08273671 0.09564678 0.0006875589
000330 23 99 a7 bd 8e 81 c9 3d 29 a1 c3 3d 90 40 a6 be
       -0.081835054 0.09839164 0.09552223 -0.32471132
000340 74 91 12 be 7c 75 33 3d 69 97 ee be f6 41 73 3d
       -0.14313298 0.043813214 -0.46599892 0.059389077
000350 21 9b 69 3e 83 dd f2 bb 16 26 05 be fd 6a 1d 3c
       0.22813083 -0.00741166 -0.1300281 0.0096080275
000360 18 cd c2 bd 20 b8 99 bd 0d f1 4a 3e 00 22 25 be
       -0.09511775 -0.07505822 0.19818516 -0.16126251
000370 8b 85 76 be 16 3b 3f bc 97 13 21 bb fe cb 2f bc
       -0.2407438 -0.011671802 -0.0024578327 -0.010729788
000380 86 02 f2 3d 37 64 38 bb fb d3 12 3e 2b 74 d7 bd
       0.118168876 -0.0028135905 0.14338677 -0.10520204
000390 a9 b4 a5 bd 58 2b b7 bc bb 01 0b 3e 68 f4 76 bd
       -0.08091099 -0.022359535 0.13574879 -0.060291678
0003a0 78 f0 8d ba b8 2c a0 bd 3c 0c 47 3e 9a 03 33 3d
       -0.0010829112 -0.078210294 0.19438261 0.043704607
0003b0 c4 51 57 3d bf 7e 41 bc c2 a8 d9 bb 59 4d 1c 3d
       0.052568212 -0.011810004 -0.006642432 0.038159702
0003c0 d8 34 ad 3b 03 18 45 bd 33 4e 5c 3e b0 68 b4 3c
       0.0052858405 -0.048118602 0.21514206 0.022022575
0003d0 1f 1c 6b 3e 45 da 92 bd 6d 52 85 3d 23 a6 28 bd
       0.22959946 -0.07170538 0.06509862 -0.041174065
0003e0 c1 39 25 3e 9a 23 11 3e 40 16 bd bd 34 44 74 3d
       0.16135313 0.14173737 -0.092327595 0.059635356
0003f0 a9 21 a8 3d 40 87 23 3d d6 61 99 be 31 47 c4 bc
       0.08209545 0.039923906 -0.29957455 -0.023959728

layer2.2.bias f4 [32]
000000 57 e8 95 3d 91 3a a1 3d 31 0e 21 bd 9d bd 1c 3e
       0.07319706 0.07872499 -0.039320175 0.15306707
000010 8e 45 97 3d d6 6e 26 3c e4 9d c8 3c 9a 8a 15 be
       0.073863134 0.010158261 0.02448935 -0.14603654
000020 36 6e 50 3e 4a e8 af 3d 43 4f 20 bd 5f 9c 1b 3e
       0.20354542 0.085892275 -0.03913809 0.1519637
000030 88 25 53 3d cc 98 51 3e 50 b2 46 3e d8 55 cd 3d
       0.051549464 0.20468444 0.19403958 0.10026139
000040 c1 b4 72 3e 7a db f0 3c 93 ee 0a 3e 26 13 cd 3d
       0.23701765 0.02940153 0.13567571 0.10013418
000050 a4 a2 30 3e 4c ff 42 3e 9d 02 62 be d4 64 cc 3d
       0.17249542 0.190427 -0.2207131 0.09980169
000060 39 b6 b2 bd db 5f 69 3b 70 53 2e 3b 67 60 98 bc
       -0.087261625 0.0035610113 0.0026600026 -0.018600656
000070 2b c2 a2 3b d2 6d 15 be 2e 2a 05 3e 62 a7 cc bd
       0.0049669943 -0.14592674 0.13004372 -0.09992863

fc1.weight f4 [10, 2048]
000000 8c 63 58 3c d3 bf 26 be 9a a5 a3 bd 5c 5b d6 3d
       0.013207328 -0.16284113 -0.0799057 0.10466644
000010 ee f0 e0 bc ea a5 27 3d 4d c1 c9 3d e9 80 cc 3d
       -0.027458634 0.040929712 0.09851322 0.09985525
000020 6f 89 59 3d 2f 1d e8 3c 68 fa 02 be ba 03 8a 3e
       0.053109583 0.028334228 -0.12790835 0.26955968
000030 95 68 32 3d c8 21 ea 3d 33 a0 dd 3d f9 ec 8c 3d
       0.04355677 0.114322245 0.10821571 0.068811364
000040 93 54 0f 3d 39 64 fb 3a c6 8c 5e bc 64 b1 32 bd
       0.034992766 0.0019179649 -0.013583368 -0.043626204
000050 f5 e1 5b be e3 75 96 3d 63 48 0b 3e e5 03 67 3d
       -0.21472915 0.07346704 0.13601832 0.0564002
000060 db 4c 3d bd 07 ea 07 3e 23 15 20 3d 85 37 ca bd
       -0.046215873 0.13272868 0.039082658 -0.09873871
000070 79 cc 73 3d d8 af 54 3c 98 a0 62 3c fb 77 61 3d
       0.059521172 0.012981378 0.013832234 0.055046063
000080 79 a6 ca 3c 09 a1 3d 3e 7a e4 7d bd 0e 57 61 3e
       0.024737583 0.18518461 -0.06198547 0.22005865
000090 64 c5 b0 bc 43 6c a1 3b d9 b6 fc 3d 5f 82 4b 3c
       -0.021578498 0.004926236 0.12339563 0.01242122
0000a0 bd 8a 9a 3d 18 d2 5a 3e 63 cf e9 3d da 10 90 ba
       0.075459935 0.21369207 0.11416509 -0.001099135
0000b0 0f 82 bd bd 92 b5 d7 3d e5 91 01 bd 42 13 08 bd
       -0.09253322 0.10532679 -0.031633276 -0.03322149
0000c0 bc 5a 8f bd 05 58 62 3d 16 f2 86 3d 7c 47 83 bd
       -0.06999728 0.055259723 0.06589143 -0.06410119
0000d0 9e 8f 32 3e 7d a7 ab 3d a5 8a 58 bd 16 c8 74 3d
       0.17437598 0.08381555 -0.052866597 0.05976113
0000e0 ef 78 f2 3d 61 57 71 3d 29 ed d3 bd aa 4e b1 3a
       0.118394725 0.05892122 -0.10347969 0.0013527472
0000f0 e5 b1 2e 3e 11 dd 17 3d 1d ae 40 3e 00 b9 50 bd
       0.17060049 0.03707606 0.18816419 -0.05095768
000100 27 87 9f be c9 40 0d 3e c2 c2 0f 3e 8d 68 5a 3e
       -0.311578 0.13794245 0.14039138 0.21328945
000110 00 ab 40 bd 7c 14 19 3d b3 2a 7d 3e d5 3d a6 bc
       -0.04703808 0.03737305 0.2472332 -0.020293156
000120 96 93 6a be 04 9b 67 bd e4 f1 fe 3d f5 63 33 3d
       -0.22907862 -0.05654432 0.12448481 0.0437965
000130 bf bf cf bd c3 c7 cb 3e 98 ac 37 be d8 1a f4 bd
       -0.101439945 0.39800844 -0.17936933 -0.119191825
000140 6f 67 7f be 22 24 f7 bd 4e ae b6 bd 12 1e 3b 3d
       -0.249418 -0.12067439 -0.08919965 0.045682974
000150 3a 8b a8 bd 5c fd 6f bd df 95 89 3e 50 97 bd 3d
       -0.0822968 -0.05859123 0.26872155 0.09257376
000160 0a 8b aa bd 80 4e 2b be b5 6a c9 bd 32 29 c4 ba
       -0.08327301 -0.16729164 -0.09834806 -0.001496589
000170 7f 0f 17 be 73 a1 21 3e 54 19 02 bd 25 1a 7e 3d
       -0.14752005 0.15784244 -0.031762436 0.062036652
000180 7a 05 82 3e 47 d5 26 be d2 22 13 3d ee 83 66 be
       0.25394803 -0.16292296 0.03592188 -0.22511265
000190 ac c8 8e 3e fc 21 dd 3d 84 56 57 3d 8c 15 fd bd
       0.27887475 0.10797498 0.052572742 -0.12357625
0001a0 6e 76 08 be 04 2f 72 bc 9c c0 34 be 90 db 9c 3d
       -0.13326427 -0.014781717 -0.176516 0.07659066
0001b0 fa 17 25 3d 9b 87 0d be f8 ec a0 bd 16 af 02 be
       0.04030607 -0.1382126 -0.07857698 -0.12762102
0001c0 5c b6 42 3e 4e 87 57 3c 1c be 15 3d 8b d7 10 3e
       0.19014877 0.013154818 0.036558256 0.14144723
0001d0 d4 11 21 be fc 11 2a be 89 ac 72 bb 41 10 4a be
       -0.15729457 -0.16608423 -0.0037029108 -0.19732763
0001e0 dc 31 26 bd c2 21 29 3e 75 c2 b4 3d 93 38 38 3e
       -0.040574893 0.16516784 0.08826152 0.17990331
0001f0 5e 13 4c 3e 12 d4 63 3d b5 6d 8a bd 07 f2 1c 3e
       0.19929263 0.055622168 -0.06759206 0.15326701
000200 e3 13 92 3d 42 ad 33 3e c5 63 d3 3d 5c 7c e4 bd
       0.07132699 0.17546561 0.10321764 -0.11156532
000210 fe e0 29 be 11 23 5d be a4 62 7e bd 30 d5 88 3c
       -0.16589734 -0.21595408 -0.06210579 0.016703218
000220 9d df be 3d 0a 6c 2f bd d5 0c 8e 3d ea e5 c0 bd
       0.093199946 -0.042827643 0.06936041 -0.094188526
000230 e8 61 4c be 63 9c a1 3d 6e af a5 bd a8 45 54 3d
       -0.19959223 0.078911565 -0.08090101 0.051824242
000240 62 91 05 3b 6e 89 0c be d9 40 24 bd 20 36 1b bd
       0.0020380844 -0.137243 -0.040100906 -0.037893414
000250 13 9a df 3d b6 fe e0 3d d9 5e e8 bd 1f 9d b6 bd
       0.10918059 0.10986082 -0.11346216 -0.08916687
000260 97 94 01 3e 09 cc 72 bd a7 74 c4 3d e4 0c fa 3c
       0.12654339 -0.059276614 0.09592562 0.030523725
000270 da 7a 8f 3d 76 89 19 bc c4 8b 79 3d f3 51 29 be
       0.07005854 -0.009371152 0.060924307 -0.16535167
000280 78 4f 59 3d d4 c9 05 3e 2b 37 2f 3e da f7 bd 3d
       0.053054303 0.13065273 0.17110889 0.092757896
000290 c3 af 76 3d c6 61 11 3e d9 e0 77 3c 87 31 23 3d
       0.060226213 0.14197454 0.015129291 0.039842155
0002a0 bf 55 bb 3c d9 41 c0 3d f5 c0 a4 3d 4d 69 23 3d
       0.022868035 0.093875594 0.08044616 0.039895345
0002b0 06 b8 8e 3b 25 b2 ca bd 83 7e d2 3d 79 ee c3 bd
       0.0043554334 -0.098972596 0.102780364 -0.095669694
0002c0 e5 d3 53 be c1 b2 f0 bd 42 1e a3 bc f3 b4 4b 3e
       -0.206863 -0.117528446 -0.019911889 0.19893245
0002d0 80 42 9e 3b 40 42 0e 3e 11 bb 29 be c4 91 13 be
       0.0048297048 0.1389246 -0.16575266 -0.14411074
0002e0 93 e8 ca bc c8 67 be bd 83 40 2d bd 2f 63 dc bd
       -0.024769103 -0.092971385 -0.04229785 -0.10761105
0002f0 ba 13 1c be 75 c2 09 bc 25 bf e2 bd 9e 2d 15 bd
       -0.152419 -0.008408179 -0.11071614 -0.036420457
000300 69 e9 89 3d 98 b4 fc 3d 80 f9 47 bc 29 6b 24 be
       0.067339726 0.12339133 -0.0122054815 -0.16056503
000310 7c a1 69 3b 87 c8 e4 bc e9 5e 4f bd 24 ae 65 be
       0.003564923 -0.02792765 -0.050627623 -0.2242971
000320 6a 98 9a 3d 6a 55 3d 3e e5 d2 2e bd d6 e8 01 bd
       0.07548602 0.18489614 -0.042681593 -0.03171619
000330 ad df b5 3d 97 d1 9a 3d d3 3b 76 3e 5e 73 66 be
       0.088805534 0.07559507 0.24046259 -0.22504947
000340 76 a8 99 bd a4 1d 7d bb c6 66 70 3e f4 75 20 3b
       -0.075028345 -0.0038622404 0.23476705 0.0024484368
000350 75 11 68 bc 68 0a d1 3d 08 5f 92 3d b5 28 cb bb
       -0.014164318 0.10207063 0.07147032 -0.006199921
000360 9b 2c f9 3d 5b fe ae 3d e5 eb b2 3d 24 7e bb 3d
       0.12166711 0.08544608 0.087363996 0.09154919
000370 eb 0f 86 bc cc 6b 8d 3c c3 2c 19 3d b1 31 96 be
       -0.016365012 0.017263316 0.037396204 -0.29334787
000380 30 f1 82 3d 01 9f a2 3d f8 e9 e3 3d ed 32 57 be
       0.06393659 0.07940484 0.111286104 -0.2101552
000390 e0 83 f6 b9 c2 81 9d 3d 57 8d e5 3d c6 a3 07 3d
       -0.0004701903 0.07690765 0.11208599 0.03311517
0003a0 27 88 f1 bc de cc 4a 3c c3 c4 2d 3d a2 17 a0 bd
       -0.029483868 0.012377946 0.042423975 -0.078170076
0003b0 e2 09 cd 3d d5 e6 67 bc 56 ae 29 bc 53 04 34 bd
       0.100116506 -0.014154156 -0.010356506 -0.043949436
0003c0 a0 a6 98 3a e7 ec ef bd 0e d2 c4 bd 47 42 cd bb
       0.0011646338 -0.117151074 -0.09610377 -0.0062640044
0003d0 df 38 85 3d 4f 15 58 bd b4 b6 cd 3d fa 6b 3e 3d
       0.06504988 -0.052754696 0.100446135 0.046489693
0003e0 65 be 89 3b 06 c0 03 3e 55 ed 53 be 40 c5 4a be
       0.004203605 0.1286622 -0.20696004 -0.19801807
0003f0 8c 86 38 bc 87 e2 ff 3c d5 20 03 be 53 89 d0 bc
       -0.011262547 0.031235946 -0.12805493 -0.025456106

fc1.bias f4 [10]
000000 27 c0 cc 3a 54 1a a3 be d0 d7 38 bd 5b 9a 08 3e
       0.0015621231 -0.31856024 -0.04512769 0.13340132
000010 b7 d5 37 3e 93 c5 57 bd d9 24 3b 3d d5 95 02 be
       0.1795262 -0.052678656 0.045689438 -0.12752469
000020 fd a5 52 3d 88 4a 1c bd
       0.05142783 -0.038157016
