model_m2.ckpt (torch_old, 844139 bytes, 18 tensors)

layer1.0.weight f4 [16, 3, 3, 3]
00000000: fa78 d0be 4b0f 763e db7e 743e 36a0 6c3e
00000010: e3ec 943e 2b37 ce3e 328d f0bd 4093 23bf
00000020: 443e 7b3e 80e9 6ebf 1dbe 753e f06e 6a3e
00000030: 2825 1a3f eb6b f53e f652 d73e 1391 48be
00000040: 9bd0 bebe f230 85be 2fcd febe 3a06 c83e
00000050: fd3a 80be 3c58 6b3e e583 6bbd 5613 bfbe
00000060: 9981 ba3c abbe 533d 1f8e 2bbe 8360 c83c
00000070: a0c5 2b3f 2bfd c9be 21fb 3f3e d252 7dbe
00000080: 5190 4c3e 08c4 43bd 34b8 7abe 696c d6bd
00000090: 45aa 78bd 6f8c cfbe df9b a03d 544f a13e
000000a0: c0f2 893d 046f ad3e 61fb 6e3e 7566 16be
000000b0: 117c b63e c995 2abe 6676 a4be c827 fcbd
000000c0: 1941 943e cfd2 e4be 32f9 d8bd 712e 8cbd
000000d0: 7368 54be 7bb3 793e 4571 abbe 61f7 c73d
000000e0: 7faa 50bd 9c5e 02be 7f5a 95bd a115 3e3c
000000f0: c1fd f13d a27e 77be fd7c 1e3e 339b 1f3e
00000100: 2914 39be a598 1c3e c728 023f 5ad3 17bf
00000110: eb69 863d cd50 1bbd 9635 3fbe ec35 17bc
00000120: 0e72 42bd 92e3 41be e6b7 553e 4187 c73c
00000130: cdb3 0d3f 5f8b d53e c040 d1be 6b1e 9fbe
00000140: 4999 15be 648e 9ebe b04c d5bd a39c 14be
00000150: aa3b 1b3f bf64 a43d f9fb a53e b20b 963e
00000160: 90da 06bc efb3 533d d441 d3be 533f 94be
00000170: 45f4 ddbd 874e 333e efab b3be cfd4 083e
00000180: 0b5b 923e 0fd9 7cbe 3ee2 c2be 842b 923d
00000190: 99db 263d 5c65 7dbd 14ff ef3e 7c33 a03e
000001a0: 9ad4 d3be cb7d 343e c7e6 6e3d 1dc3 9ebd
000001b0: b4ae 21be bea8 d73b fce2 493e cb39 da3e
000001c0: 1130 0f3c 056e 0e3d 1b57 a1be 8182 ecbd
000001d0: e871 81be 9499 3bbe 4ed2 83bd 34e5 13bd
000001e0: c583 6d3e f113 11be a48b 54be 18ac 0a3f
000001f0: 32b9 b23c b83f 0abe 1bec 543e 33a9 55bd
00000200: abd3 643b cd7a a93e 5901 7f3e 5b67 c63d
00000210: f0f1 e53e 82e7 dcbe f34f a0be d09b 11bc
00000220: acec a0be beb2 83be caf4 9cbe faa1 b53e
00000230: 3655 433d af6e 64be 29c9 f53e 8ef5 cbbd
00000240: 289e d73d 06a8 86be a594 d6be e58c 03be
00000250: 8ee5 163e 28af 8abd 1e3d bbbc 23b6 d03e
00000260: 73f6 80bd fc17 a63c 37dc 0cbf 2e2e c43e
00000270: 1771 4bbe 48f0 9e3e c969 e9be d93c ea3b
00000280: ccff f53e d9da 523e cca2 703e 81b6 88be
00000290: 319e 57bf 06a4 b9be 19f0 033f 83cd 33be
000002a0: 4644 55be 2a25 79be 9331 14be 4cf0 96be
000002b0: c1f3 1b3e c721 2a3e 2afe a0bd e47d 3e3e
000002c0: 4da5 103f 6ea2 1dbc 1ba0 0e3f cf63 bebe
000002d0: 20b8 3bbe 58ab 883e 964e 443e 6b84 313e
000002e0: 6bd7 303e 6ce0 a03d 3953 27be 5eff bb3d
000002f0: 69b3 783c d197 0e3e 8d4b bf3e 6ede b93e
00000300: ff21 3a3e 9fd7 3bbe 5e8b bebd c158 ac3d
00000310: 4cba 52bd 1ce6 66be 553f a63c a9ee 13be
00000320: 1f99 fc3b da65 35be 8b47 dcbd 2653 5fbe
00000330: 8bea 7bbe d55c 6c3e a796 43be bced f7bd
00000340: a73e 163d af96 f23e e67c 96bc 7d59 dbbd
00000350: f898 84be 5943 b73e 6dea b63d a40b baba
00000360: e836 633e a692 60be 647d 223e 6825 26bd
00000370: 9024 843e c355 28be 7c01 03bf cfe4 18be
00000380: 20b9 1dbe e6bd 463e a5a1 e43e a730 30be
00000390: f8e7 99be 9d1e 313f 06b6 a2be ed9e d3bc
000003a0: 9165 ab3e 2614 da3e 464b 2bbf 8929 84be
000003b0: dd15 a43d bc99 873e aac0 683e 51a0 83be
000003c0: f8b5 d93e 7c55 8dbe 93ed 8fbd 627c 353d
000003d0: a38f e3be eeac 303e a0fe 90be 4102 743d
000003e0: 074b 983e db08 ffbc ef57 6dbe 2ec2 74be
000003f0: c781 253e 612d dfbd ffe6 a53e 59e4 d5bb
-0.40717298 0.24029271 0.23876517 0.2310799 0.2908698 0.40276465 -0.11745681 -0.6389656
0.24535471 -0.9332504 0.23998304 0.22893882 0.60212946 0.47933897 0.42055482 -0.19586591
-0.37268528 -0.26013905 -0.49765918 0.3906725 -0.25045004 0.22982877 -0.05749883 -0.3731944
0.022766875 0.051695507 -0.16753434 0.024460083 0.67098427 -0.39450964 0.18748142 -0.24738625
0.19976927 -0.04779437 -0.2448433 -0.10469896 -0.060709257 -0.4053683 0.0784223 0.31505835
0.06735754 0.3387376 0.23338081 -0.14687522 0.3564153 -0.16658701 -0.3212158 -0.12312275
0.28955916 -0.44692084 -0.10594405 -0.068447955 -0.20742969 0.24384873 -0.33484855 0.09763981
-0.050943848 -0.12731403 -0.072926514 0.011601836 0.11815978 -0.241694 0.15477367 0.15586548
-0.18074097 0.15292604 0.5084347 -0.5930687 0.06563171 -0.037918855 -0.18672785 -0.009229165
-0.047472052 -0.18934467 0.20870933 0.024356486 0.5535248 0.41707894 -0.40869713 -0.31077895
-0.14609255 -0.3096801 -0.104150176 -0.14512877 0.60637915 0.08027028 0.32418802 0.29305798
-0.00823082 0.05168527 -0.4126116 -0.28954563 -0.10837606 0.17510425 -0.35092112 0.1336243
0.28585085 -0.24692176 -0.38063234 0.07137206 0.04073677 -0.061864242 0.46874297 0.3128928
-0.4137314 0.17626111 0.058325555 -0.07752059 -0.157893 0.006581395 0.19715494 0.42622218
0.008739487 0.03477289 -0.3151177 -0.11548329 -0.25282216 -0.18320304 -0.06436597 -0.036107257
0.23194797 -0.14167763 -0.20756394 0.54168844 0.021816824 -0.1350087 0.20793192 -0.052163314
0.0034916203 0.33101502 0.24902858 0.09687682 0.44911146 -0.43145376 -0.31310996 -0.008887246
-0.31430566 -0.25722307 -0.3065551 0.3547514 0.047688685 -0.22307847 0.48005036 -0.09958945
0.10528213 -0.26300067 -0.41910282 -0.12846716 0.14736006 -0.0677169 -0.022856291 0.4076396
-0.062970065 0.020275109 -0.5502352 0.38316482 -0.19867359 0.31042695 -0.4558852 0.007148367
0.4804672 0.20591296 0.23499602 -0.2670174 -0.84225756 -0.36257952 0.51538235 -0.17558865
-0.20826825 -0.24330583 -0.14472036 -0.29480207 0.15229703 0.16614448 -0.07860978 0.18602711
0.5650223 -0.009621246 0.5571305 -0.37185523 -0.18331957 0.26693225 0.19170603 0.1733567
0.17269675 0.07855305 -0.1634034 0.09179567 0.015179493 0.13925101 0.37362328 0.36302513
0.18177031 -0.18343972 -0.09303926 0.08415366 -0.051447198 -0.22548717 0.020293871 -0.1444651
0.007708683 -0.17714635 -0.10755833 -0.21809062 -0.2460119 0.23082288 -0.19100438 -0.12105891
0.036680844 0.47380587 -0.018370103 -0.10710428 -0.25897956 0.3579357 0.08931432 -0.0014194143
0.22188914 -0.21930942 0.15868145 -0.040563017 0.25809145 -0.16438965 -0.5117414 -0.14931034
-0.15402651 0.19408378 0.44654575 -0.1720606 -0.3005979 0.6918734 -0.31779498 -0.025832618
0.33475927 0.42593497 -0.66911733 -0.2581294 0.080119826 0.26484478 0.22729746 -0.2570825
0.42521644 -0.27604282 -0.070277356 0.044308074 -0.44445524 0.17253467 -0.28319263 0.059572462
0.2974474 -0.031132152 -0.23178075 -0.23902199 0.16162787 -0.10897327 0.324028 -0.0065274653

layer1.0.bias f4 [16]
00000000: 16e1 273e 605c 0a3e c5d2 22be e4bf 4f3e
00000010: a9bb 91bd 89f9 8bbd 7e1a 033e 60f1 a8bd
00000020: bd4b c03d 63b4 333e 25c2 7abe c8f3 093e
00000030: 7e11 853d 14f3 7dbe 48e1 813d 37d8 d6bc
0.16394457 0.13511801 -0.15900715 0.20288044 -0.071158715 -0.068347044 0.12803075 -0.08249164
0.09389446 0.17549281 -0.24488123 0.13471901 0.06497477 -0.24799758 0.06341797 -0.026226146

layer1.2.weight f4 [16, 16, 3, 3]
00000000: b7c5 2a3e c423 25be 5ede 8bbe 5ea3 ccbd
00000010: ff2a 3abe fa5e 623e b47b 21be 7312 223e
00000020: 716d e53d 409d 163d 22ee 403e f085 a4bd
00000030: e00e 093e 3366 41bd 18fa 98bd d310 503d
00000040: cd3a 80bd 6665 5c3e 8268 273d 5230 10bd
00000050: 52aa cf3c a718 d63c 44c6 72be e2d2 033d
00000060: d4be 3f3d 51c6 fcbd 04d4 8e3c 4d6c 373d
00000070: 487b ec3c f4ae d13c 9c9e 893d 1cb5 0ebe
00000080: 3fa0 e03d 06e9 9cbd 7a2c 5fbd 826a 943d
00000090: ed0c 423c e796 68bd 7b12 25be 3992 25be
000000a0: 5b3a 22be cab1 d8bc 994c 08be 8a3d 173d
000000b0: 22dd babc 10d0 01be 5196 c23d 5cba ae3d
000000c0: 52ad 09be f98a 833e de63 583c fbf1 ae3d
000000d0: 6185 0e3e d399 6dbe 07e8 12be aeaa 943d
000000e0: 7700 8a3e e890 d4bd f190 b7bd 2666 723d
000000f0: 7298 4c3d 92c0 4ebe 5ffd 7b3d 30e5 ac3d
00000100: b967 a0be 7119 32be d881 603e 9350 b83c
00000110: 549d 823e 133d 1ebe 9d8c 67bd d0d4 bb3d
00000120: 0183 933d 8e65 a6bc 7130 a53c 77c1 553d
00000130: b119 c1bd fd68 593e efd5 44be 2606 623d
00000140: 432c 60be bc43 44be 3e21 04be 8fb0 113d
00000150: f77a be3d 0c6e 853b f179 273e f2d9 103e
00000160: 1a83 26bd bd84 fbbd 0dc3 063d 7dd3 99be
00000170: 46d7 1dbe 3337 683d 1ab2 9a3d bba2 d83c
00000180: 3679 463e 95cc e73b f713 a63d fd9f af3e
00000190: 5309 0abe c237 fcbd 909d 56be 6e90 0abe
000001a0: d187 bd3d 4d72 38be 04e2 253e 3cf3 9ebd
000001b0: 4e0e 603e f486 a0be ef45 18be 9a69 cebc
000001c0: 53fb 70be 82a2 cf3e d44e 29be 1fb9 583e
000001d0: 1974 17bd d13e 15bd e1dd 70bd 5039 07bd
000001e0: 0332 ebbe eede 873d e3a9 d83c 625d 82bb
000001f0: 4ced 333e 47c6 f13c 14b1 f43b 78af 8b3d
00000200: ba54 a9bd 3a1a d3bd 24ab 2d3c f422 b4bc
00000210: 37bc 083d 091f ebbd d7d4 d33c 0327 f53b
00000220: d23f babe 63b8 313e b944 b6be 9441 fe3b
00000230: 26bc b63d 52cf 46bc cee1 4f3e 0716 2fbe
00000240: 07ec e73d 60f7 1c3e 2029 69be d655 4fbd
00000250: 8341 1a3d 1ebd 5abe c176 a93d 693e 053d
00000260: 5c16 c0be b216 c5bd 6632 613d 243d b9bd
00000270: 38ea 443d 28ea 22be b4b4 f93a 1555 cdbe
00000280: fa09 1c3e aa3e abbd d433 59be 0bf0 eebc
00000290: 9771 cf3c 7576 14be 1497 4f3e 6d30 c23d
000002a0: 4e7d 26be f7b2 143d 176a 2ebe 70ba 17be
000002b0: be82 8fbd a946 aabd d15f 683d 56c4 ea3d
000002c0: 735a 4cbd ac84 46bd 91a6 08bd 9910 2abe
000002d0: bbd5 14be 80f5 3d3e a907 fe3d 91cd 803e
000002e0: f958 1a3e e102 f13c ba0f 80bd f850 86bd
000002f0: 3e43 8bbd 73b4 d9bd a003 12be d268 22be
00000300: f178 6f3d 85d6 12be 5ae5 4cbd d4ff dfbc
00000310: f279 853c ef16 06be 1dd5 723e f3be 90be
00000320: 00f0 aebe a256 a7bd 850a 2ebd 8714 053d
00000330: 4de1 8dbd 8564 10be dd7a febc 82e6 a63c
00000340: 9586 fc3c 3e65 89bb 84b0 413e cea3 0fbe
00000350: d467 ecbd 4e2b acbe 6c8a bfbe 5790 d03d
00000360: b5a5 b33d 2777 1d3e 083e 203e cbee cc3e
00000370: c106 dcbc 459f 5abe 88c5 5cbd c365 28be
00000380: d87a 913d cd5a 8fbc 6f45 0dbe c108 56be
00000390: 8176 57bd a3c6 00be 772b 77bd 75af 913d
000003a0: bf9c 40be da08 fdbd fc01 1cbd 75c7 d7bd
000003b0: b6aa d13b a76a 0dbe 4a6c 89bd 6c05 a83d
000003c0: 6093 66be 1455 ac3d e1de 4f3e e955 a83d
000003d0: cf09 783e 2f39 cd3d d231 7e3e b9f7 813e
000003e0: 2bd5 643e c166 403e f922 583d c396 07be
000003f0: 2365 163e 17cc 91bd 8b84 143e bc6d b23e
0.16676985 -0.16126925 -0.2731809 -0.09992097 -0.18180464 0.22106543 -0.15769845 0.1582735
0.11202515 0.03677106 0.1884084 -0.08033359 0.1338458 -0.047216605 -0.074695766 0.050797295
-0.06261215 0.21523055 0.04087115 -0.03520233 0.02534977 0.026134802 -0.23708445 0.032183535
0.046812847 -0.12342513 0.017435081 0.044781018 0.028867379 0.02559612 0.067197055 -0.13936275
0.109680645 -0.07661633 -0.054485776 0.07246877 0.011843902 -0.056784537 -0.16120331 -0.16169061
-0.15842573 -0.026451964 -0.1331047 0.036923923 -0.022810522 -0.12677026 0.09501327 0.08531639
-0.13445023 0.25691965 0.013207404 0.08542248 0.13918068 -0.2320321 -0.14346324 0.07259117
0.2695348 -0.10379201 -0.08963192 0.059179448 0.04995007 -0.20190647 0.06152093 0.084421515
-0.31329134 -0.17392518 0.21924531 0.022499358 0.25510657 -0.15452985 -0.056530584 0.0917145
0.072027214 -0.020312097 0.0201647 0.052186456 -0.09428728 0.21231456 -0.19222234 0.055181645
-0.21891885 -0.19166464 -0.12903306 0.03556877 0.093007974 0.0040719565 0.1635511 0.1414564
-0.040652372 -0.12281177 0.03290086 -0.30044165 -0.15414152 0.056693267 0.075535014 0.026444783
0.19382176 0.0070739486 0.08109277 0.3430175 -0.1348012 -0.123153225 -0.20958543 -0.13531658
0.092544205 -0.18012352 0.161995 -0.07761237 0.21880457 -0.3135296 -0.14870428 -0.02519684
-0.23533373 0.4055367 -0.16533977 0.21164368 -0.036975954 -0.03643686 -0.05880535 -0.03301364
-0.45936593 0.06634317 0.026448196 -0.0039784173 0.1757099 0.029513491 0.0074673984 0.068205774
-0.082681134 -0.10307737 0.010599885 -0.021989323 0.03338262 -0.11480529 0.025858326 0.007481457
-0.36376816 0.17355494 -0.35599306 0.0077592824 0.08922605 -0.01213439 0.20300981 -0.17098247
0.113243155 0.15328741 -0.22769594 -0.05061897 0.037660133 -0.21361205 0.08274604 0.032530222
-0.3751706 -0.096234694 0.054979704 -0.09044865 0.04807493 -0.15909636 0.0019051046 -0.40103975
0.15238181 -0.083615616 -0.21211177 -0.029167196 0.025322719 -0.14498313 0.20272475 0.09481893
-0.16258737 0.036303487 -0.17032658 -0.14817214 -0.07007359 -0.083142586 0.056732003 0.11463229
-0.049890947 -0.04846637 -0.033361975 -0.16607894 -0.14534657 0.18550682 0.12403805 0.25156835
0.15073003 0.029420318 -0.062529996 -0.06558412 -0.06799935 -0.10630121 -0.14259195 -0.15860298
0.058464948 -0.14339645 -0.050023414 -0.027343668 0.0162935 -0.13094686 0.23714109 -0.28270683
-0.3416748 -0.08170821 -0.0424905 0.03249028 -0.06927738 -0.14100845 -0.031064445 0.020373587
0.030825892 -0.004192977 0.18914992 -0.1402733 -0.11543241 -0.3362679 -0.37410295 0.10183781
0.087718405 0.15377484 0.15648663 0.40025935 -0.02685869 -0.21349819 -0.053899318 -0.16445069
0.07103509 -0.017499352 -0.13796018 -0.20901777 -0.05260325 -0.12575774 -0.060344186 0.07113544
-0.18809794 -0.12355204 -0.03808783 -0.1053609 0.006398524 -0.13810216 -0.067101076 0.08204159
-0.22517157 0.08414665 0.20299865 0.08219511 0.24222492 0.100206725 0.24823692 0.2538431
0.22346942 0.18789198 0.052767728 -0.13241105 0.14687018 -0.07119005 0.14503686 0.34849346

layer1.2.bias f4 [16]
00000000: 05bc b33b cd68 293c b68f 2f3d d585 44bd
00000010: 53d9 ffbd c29c 07bd a197 623d 5bea 9f3d
00000020: 5609 f3bc 168c 30be d8e1 d7bd 2412 be3d
00000030: 0c72 7f3c db49 fdbd 2aa1 8abd 599e 013d
0.00548506 0.010339928 0.042861663 -0.047979195 -0.12492623 -0.03310848 0.055320386 0.07808372
-0.029667538 -0.17240939 -0.10541123 0.09280804 0.015591156 -0.123676024 -0.06769021 0.031645153

layer2.0.weight f4 [32, 16, 3, 3]
00000000: 35c6 0c3d 0efe 97bd 651f a83e 3279 87bd
00000010: 7224 223e 14bd db3d b7ae 893e 4c2a 043d
00000020: be85 06be fdca 4fbe e4b1 e8bd df25 7a3d
00000030: 01f9 603d 7077 8abc cf78 653e 23c9 2c3d
00000040: d8f3 1cbe 47e3 3dbd 0a6e 8b3e 649f 463e
00000050: ab49 543e d65e 09bd c57d 2cbb e3fb 34bc
00000060: 7486 063e 89ec b1bc ec3d 823d 8225 073c
00000070: 7e93 babe f7a5 32be 42c4 c3bd 1388 e8be
00000080: 72af 2abe 9a68 2a3d d174 8cbe 4997 663e
00000090: 2cb4 00bd 2124 983d 4d43 73be b455 cdba
000000a0: 54be 07bf a203 83be df95 33be d423 1dbe
000000b0: 17be 2fbe 05b4 78be 74ad c7bd aa91 e3bd
000000c0: 03a7 19be 3d77 52be f416 ce3d 906f 52bd
000000d0: 61ee c23d f9e7 c43b d503 83be 1c0b 4f3c
000000e0: d1ce 34be c6d4 303e 2470 943b 550d 1d3e
000000f0: cac2 173e 33b6 e0bd f27b 13be afcb ab3d
00000100: 102e 163d 83c7 443d ac00 65bd a2d1 b83d
00000110: d6b1 f0bd bd53 9b3c 883a bfbd 82b6 a2bd
00000120: b5a5 e5b9 c45e 86be 1b69 0bbe 40f0 053e
00000130: db23 06be 0b5c 91bd 44fc e03e 2cf1 873e
00000140: 3c58 8abe f187 a2bd ab7f 60be a9be 9dbe
00000150: c6b3 27bd b6f0 dbbe aba8 eebd bb49 de3d
00000160: 913a 6bbe bc10 833b 8672 4bbd c048 96be
00000170: 9f02 b53d 4ce4 5a3e cf6d 4bbd 64d4 6a3c
00000180: cfb6 933d 07ac aebd 86a8 d53d 7747 2b3e
00000190: 443a 71be 2e01 e3bd 7c03 fc3d 3bae 923d
000001a0: 3a36 adbd 5933 79bd 53ff 25be 6642 57bc
000001b0: f8cc cf3c 22eb b9bd bff3 70be da05 363e
000001c0: 1651 12be 34c4 c13a 63f8 c3bd 0f0a 95bc
000001d0: da5f 573d fa3b f0bb b139 fd3d 69e0 12be
000001e0: e052 333d ed32 8e3e baef 28bb 3115 a83d
000001f0: 63e5 393d 6d8f 493e eef5 8b3d eaad 153e
00000200: 46b6 dfbd 4afc a8bb f7ee a13d fda8 9cbe
00000210: be45 683d e8ca 573d 6b0d 093e 9ae9 8cbd
00000220: bef5 67be abc2 b2bc fd83 7fbe c159 07bd
00000230: 65b4 e33d b196 c93e 4c98 163e 46ab 1f3e
00000240: ca60 85be f031 5fbd 27e6 34be 896c fc3d
00000250: 21a4 69bb eec0 603e f8db 1e3d 8f45 563e
00000260: 3459 8a3d f266 3e3e 8cd3 7fbd 62be 8b3e
00000270: 5d3f b4be 4bbe 3fbc e7ca a23e e6a8 f2bd
00000280: af1c 5c3d 1558 803e bc57 6ebe 1173 33be
00000290: 6e7b 1abd 44f7 36be 2748 edbd 6fa4 86bd
000002a0: dbce 043c 3e04 25bd bcd7 603d 46da c3bd
000002b0: 3e68 a0be 8ac6 89bb 8098 2ebe bbb4 84be
000002c0: 9062 eb3d e974 69be eee6 bfbd b69b 64bb
000002d0: 1d18 a1be ae01 0dbf 675e 56be cada c3be
000002e0: e62d 7abe d921 77be dc69 d0be 2a89 c9be
000002f0: 778e 3dbe abf0 5c3c c1db 6f3c 5975 77bc
00000300: 4acc 95bc 78fc 4bbe a092 6cbe 5780 00bd
00000310: d9d5 adbb baee a8bd 12dd a1be 1d0d f2be
00000320: 0403 a9be 1353 0ebe 5f52 aebe 63ea 9bbd
00000330: ee7e c73c ce89 12be fd52 0dbe f827 2a3d
00000340: fc9f fcbd 33eb c33d ba51 c13e e170 763c
00000350: 2cc7 433e 7ea3 b6be b1cf 62be e5ed 81bd
00000360: 296e e5bd 8a02 3fbe 0d50 10be 0a2d e8bd
00000370: 52d1 bdbc 7ec4 8a3e 9d12 9d3d bebb d0bd
00000380: 12b6 8dbd 8d60 6bbd 6077 403d 12b1 3a3e
00000390: 2919 ebbe 2f04 96be 6426 7cbe a055 e0bc
000003a0: ab51 c1be c67c f1bd 181d debc 7b96 2abe
000003b0: 6d7e 893e 3053 133d 0594 0dbc a347 813e
000003c0: 6a0b b83d f7f3 1ebd df00 90bd d752 413e
000003d0: 95f8 a43d 566a 29bd bf44 3f3e a23e e33d
000003e0: f198 203d a5d6 7ebd 38b7 8ebd e264 853c
000003f0: 7818 dbbd ba59 1a3b 9636 423e 6499 a03d
0.034368712 -0.07421504 0.32836452 -0.06614913 0.15834215 0.10729423 0.2689111 0.0322669
-0.13136956 -0.20292278 -0.11362055 0.061071273 0.05492497 -0.016902655 0.22409366 0.042184006
-0.15327394 -0.046359327 0.2723239 0.1939674 0.20731227 -0.03353771 -0.0026320082 -0.011046383
0.13137227 -0.021719234 0.06359467 0.008248689 -0.36440653 -0.17446123 -0.095589176 -0.45416316
-0.1666849 0.041603662 -0.27432874 0.22518648 -0.031421825 0.07428766 -0.23756142 -0.00156658
-0.5302479 -0.2558871 -0.1753764 -0.15345699 -0.17162357 -0.24287422 -0.097498804 -0.111117676
-0.15005116 -0.20553298 0.10062972 -0.051375926 0.095181234 0.0060090986 -0.2558886 0.012636926
-0.17657019 0.17268667 0.0045299698 0.15337117 0.148204 -0.10972252 -0.1440275 0.08388459
0.036665022 0.04804183 -0.055908844 0.09024359 -0.117526695 0.018960828 -0.09337336 -0.07944967
-0.00043801745 -0.26244175 -0.13614313 0.1307993 -0.13099615 -0.07097634 0.43942463 0.26551187
-0.27020442 -0.07936085 -0.21923701 -0.30809525 -0.04094293 -0.42957085 -0.116532646 0.10853907
-0.2297156 0.0039997976 -0.049669765 -0.2935238 0.088383906 0.21376151 -0.04966527 0.014332864
0.07212602 -0.08528905 0.10432534 0.1672648 -0.23557383 -0.110842094 0.12305352 0.07162138
-0.084576085 -0.060839985 -0.1621068 -0.013138389 0.025366291 -0.09078051 -0.23530482 0.1777567
-0.14288744 0.0014783205 -0.095688604 -0.018193273 0.052581646 -0.0073313685 0.123645194 -0.14343418
0.043780208 0.27773228 -0.0025777654 0.08207167 0.045384776 0.19683619 0.06834017 0.14617124
-0.10923438 -0.0051570283 0.07906907 -0.30597678 0.056707136 0.05268374 0.13384025 -0.068804935
-0.22652337 -0.02182134 -0.24952693 -0.03304458 0.11118392 0.3937278 0.14706534 0.1559268
-0.26050407 -0.054490983 -0.17665921 0.12325389 -0.0035650807 0.21948597 0.038783997 0.20924972
0.067552954 0.18593958 -0.062457606 0.27293688 -0.35204592 -0.011703084 0.31795427 -0.11848621
0.053738292 0.250672 -0.23275656 -0.17524363 -0.037715368 -0.17867762 -0.115860276 -0.06574332
0.008105959 -0.04028725 0.05489324 -0.09563117 -0.3132953 -0.004204576 -0.17050362 -0.25919136
0.11493409 -0.22798504 -0.09370218 -0.003488285 -0.3146371 -0.5508069 -0.20934449 -0.3825286
-0.24431571 -0.24134006 -0.40705764 -0.3936246 -0.18511377 0.013485114 0.014639796 -0.015103661
-0.01828589 -0.19920528 -0.23102808 -0.031372394 -0.0053050336 -0.082486585 -0.31613976 -0.4727563
-0.33010113 -0.13898878 -0.3404722 -0.07613065 0.024352517 -0.14310381 -0.13801189 0.041542023
-0.12335202 0.09566345 0.37757665 0.015041561 0.19118947 -0.3567161 -0.2214954 -0.06344203
-0.11202652 -0.18653312 -0.14093037 -0.113367155 -0.0231711 0.27103037 0.07669566 -0.10192059
-0.06919493 -0.057465125 0.046988845 0.1823161 -0.45917633 -0.29300067 -0.2462402 -0.02738458
-0.3775762 -0.11791377 -0.027113482 -0.16658966 0.26854268 0.035968006 -0.008641248 0.25249967
0.08986552 -0.03880688 -0.07031416 0.18879257 0.08055226 -0.041361175 0.18678568 0.11095931
0.039208356 -0.06221642 -0.0696854 0.016283456 -0.106980264 0.0023552016 0.18966135 0.07841757

layer2.0.bias f4 [32]
00000000: a9ea 12be 1892 413e c5f8 873d 6aba 07be
00000010: a027 b8bd 4b2a b0bd 990f 73bc 0703 433e
00000020: 5a0b 683d 1bf3 543e c51f 63bc 0d50 133e
00000030: c3c1 59bd 04c8 c33d 4631 723c 5b30 7f3d
00000040: bf19 833d 61dd bdbc 9ef1 813e be25 813e
00000050: 4791 36be d4af 5abe 0d0c 58bd 1036 593e
00000060: 3873 e23d 0f48 eebd 54ab 7e3e b1e7 123e
00000070: eef3 773d f640 123d 4c58 4a3d 1bc6 773e
-0.14347328 0.18903387 0.06639246 -0.13254705 -0.08991933 -0.08601817 -0.014835262 0.19044124
0.05665145 0.20795862 -0.013862555 0.14386006 -0.0531633 0.09559634 0.0147822555 0.062301975
0.06401395 -0.02317685 0.25379652 0.25224108 -0.17828856 -0.21356136 -0.052745868 0.2121203
0.110571325 -0.11634838 0.24870044 0.14346196 0.060535364 0.035706483 0.049400613 0.24196665

layer2.2.weight f4 [32, 32, 3, 3]
00000000: 8932 7f3d 66cb 9fbd 28c1 513d 1fea 483d
00000010: 1c76 2bbe ff20 b3be b2d9 cbbd 360f 97bd
00000020: 9292 f8bd d0a0 babd 5450 763d f37f f53c
00000030: c44c 89bd 8f53 3abd c97b 31be 3457 eabd
00000040: 59d1 e13c 0fa5 94bd 7a3a 073a baf1 b6bd
00000050: e877 353d 4d68 e3ba ec9d 6fbd 2159 17be
00000060: 1cd2 9fbd c159 a53c d756 d9bd 5c51 c0bd
00000070: c998 b6be 034c 253e 2a6c c2bd 2314 82bd
00000080: c45b b13d a2bc 63be 4449 f1bd 2053 a83d
00000090: ce3f 823d eea5 55be 0f9d ecbc 6a72 e43c
000000a0: ec38 a73d dbda 323e 2ab1 f63d 90ba 7b3d
000000b0: 6593 53be c5b9 2fbe ab24 02be 4682 71bc
000000c0: 087f 4dbe e9ab 003e faf4 44bd 512a 293b
000000d0: 505d 3d3e a32f 753e 80a2 a7bd 1159 ef3d
000000e0: 7a6c 08bd 1cbc 67be f404 26bc eee2 a9bd
000000f0: 3d93 c8bd 6cb1 29be 5d6a 86be c501 8e3c
00000100: 9c9e 7e3e 8a05 8e3d 631d 953d 560b 083c
00000110: 30d9 f7bb 3834 493e b224 8f3e 579a 86bd
00000120: ecf5 033e 2346 ed3d 7025 883d edbc 20bd
00000130: 3342 843d 6c46 61be 9792 3c3e 2806 e63d
00000140: 339e ea3d 349e 86be c961 36bd 963d 8a3d
00000150: edb1 533e a1f9 3f3e 68e4 7fbc 67c0 103d
00000160: 2f36 193e cf01 9e3c ec16 9dbe 2f3f a4be
00000170: 5771 eb3d 82cd 0bbd 91b2 19bc 6f66 8dbc
00000180: 729c aabd c9ee 0abc 7bc5 a8bd a029 86bc
00000190: 70af 86bd d1e0 ca3d ff52 9cbd 6e42 f8bc
000001a0: 9cb5 b8bd e113 e5bd c69e 1bbe 684e 3cbe
000001b0: a6f7 123d d367 ebbd 67cd 0b3d 882a 07be
000001c0: b0e3 3ebc ae45 303e 8471 29be ff0c 3abe
000001d0: dd9a 0d3e ecf4 b03b 529d 44be 4003 a43d
000001e0: aa13 ebbd 68bc 02bc 7949 0fbe 8afc acbc
000001f0: 565d 0dbe c0c6 b43d 026c 9c3c 5fbe ccbc
00000200: 71b6 9f3d d4b5 403d 36c5 38be 6ba6 4a3e
00000210: d619 7abe 19be 6b3d f18b ee3d 49c4 723c
00000220: 6a08 45bc 207f 013e ca8f 353d 6317 8b3d
00000230: a59d d8bd 41a3 2dbc a0f2 88bd d234 3a3e
00000240: 7de2 4d3c 2188 76bd 4e9e 06be 24c1 12be
00000250: aefa b3bd 548f 37be 8df6 8dbd 9b85 3d3e
00000260: 9d6a 473d 34f6 abbd 387b 85bd 90e1 c3bd
00000270: 2752 1e3e 24ce 90bd 730a 9fbc 4ba8 99bd
00000280: 2782 30be e6f9 84be 9490 41bd 462a 70bd
00000290: eed4 36b9 756e 003e f770 923d f593 643c
000002a0: 055a b33d d62c db3a bef2 2fbe 3e8d 3dbe
000002b0: f897 9fbd 4113 3fbc 410d 9fbe b270 84bd
000002c0: 18ca 83be 3126 9dbd e143 f83c dd72 59bd
000002d0: c0ea 063e a9e4 48be 123c d63d 20ed d2bc
000002e0: 94ab febc 53bf 313d a89a 8f3d 7109 e1bd
000002f0: 7379 ffbc 2c6f cd3d 3877 e83b 9d0d 1bbe
00000300: b9d8 f43d 6f93 29bd 2a6a 84bd 71f4 afbe
00000310: e802 f1bc fdd3 9e3d 8094 a0bd 488f 293c
00000320: 9174 24bd d914 893d 2f53 a0bc b33c e8bd
00000330: 0dc0 3f3c 4541 59bd 95e8 b9be d674 28be
00000340: d8b7 85bd 9c21 083e ba05 db3d 6f0d a63d
00000350: a31d 293e 6339 74bd 9d52 163e 97c9 ba3d
00000360: b45c a1bd ec8b c9bd 014a 7fbd 68c1 983c
00000370: 53e6 9cbd 0954 54be 668f 46bb 35eb 4fbe
00000380: 2035 2c3d 01a4 afbd 4f2d debd e55b 6fbd
00000390: 2603 3cbe e007 073e 86ea 2fbe b39b 02be
000003a0: 6b81 08be 6750 0ebd cc27 0f3e d278 843d
000003b0: aa41 2d3c b7a7 933e 0b7b bbba e5e6 29be
000003c0: 852c 1fbd 5386 ae3c 3439 57bb 235f f33d
000003d0: b05d 393d 5c7a 8c3b 9930 313e 0972 963e
000003e0: 54c7 a6bc 4690 6e3e 3d9a 453e b060 53bd
000003f0: eed0 09be ad6c 2fbe 911f 66bd 7240 6bbe
0.062304053 -0.07802467 0.0512096 0.0490514 -0.16744274 -0.34986112 -0.099536315 -0.07375948
-0.12137331 -0.09112704 0.0601352 0.029968238 -0.06704095 -0.045489844 -0.17332377 -0.11442414
0.027565645 -0.07258045 0.0005158555 -0.089328244 0.044303805 -0.001734981 -0.058500215 -0.14780094
-0.07803747 0.0201844 -0.106122665 -0.09390518 -0.3566344 0.16142277 -0.09493287 -0.06351497
0.08660081 -0.22239926 -0.117815524 0.0821898 0.06359826 -0.20864078 -0.028883485 0.027886588
0.08165154 0.17466299 0.1204551 0.061457217 -0.20661695 -0.17160709 -0.127093 -0.014740532
-0.2006799 0.12565579 -0.04808519 0.0025812576 0.18492627 0.23943953 -0.08185291 0.1168691
-0.033306576 -0.22630352 -0.010133017 -0.082952365 -0.097937085 -0.16571587 -0.26253024 0.017334828
0.24865192 0.0693465 0.07280996 0.008303484 -0.0075637326 0.19648826 0.27957684 -0.06572407
0.1288678 0.11585643 0.06647766 -0.039242674 0.06457939 -0.2199952 0.18415295 0.11231643
0.11455955 -0.26292574 -0.04452685 0.06750028 0.20673342 0.1874757 -0.015618421 0.03533974
0.14962076 0.019287972 -0.3068155 -0.32079455 0.11496227 -0.034131534 -0.009380952 -0.017260758
-0.08330621 -0.008479782 -0.082407914 -0.01637727 -0.06576431 0.099061616 -0.07633018 -0.030305114
-0.09019014 -0.11185432 -0.15197286 -0.18389285 0.035880707 -0.11494412 0.034131434 -0.13199818
-0.011650965 0.1721408 -0.16547209 -0.1816902 0.13828607 0.0054002907 -0.19200638 0.080084324
-0.1147836 -0.00797949 -0.13992871 -0.021116514 -0.13805136 0.08826971 0.01909447 -0.02499312
0.0779847 0.047048405 -0.1804398 0.19790046 -0.24423918 0.057554338 0.116477855 0.014817306
-0.012025932 0.1264615 0.04432658 0.0679157 -0.10576943 -0.010598005 -0.06686902 0.18184212
0.012566206 -0.060188416 -0.13146326 -0.1433149 -0.08788048 -0.17925769 -0.069317915 0.18507998
0.04868566 -0.08396569 -0.06517643 -0.09564507 0.15461026 -0.07070568 -0.019414162 -0.075028025
-0.17237149 -0.25971907 -0.04725702 -0.058634065 -0.00017436195 0.12542136 0.071504526 0.013951291
0.08757404 0.0016721736 -0.17182443 -0.18510911 -0.077926576 -0.011662305 -0.310648 -0.064668074
-0.25740123 -0.076733 0.030305805 -0.053088058 0.13175488 -0.19618477 0.10460676 -0.025747836
-0.031087674 0.04339535 0.0701192 -0.10988129 -0.031185841 0.1003097 0.00709429 -0.15141912
0.11955399 -0.04140037 -0.06465562 -0.34366181 -0.029420331 0.07755277 -0.07840824 0.010349102
-0.04015023 0.066934295 -0.019570915 -0.113397025 0.011703503 -0.05304076 -0.36310259 -0.1645082
-0.06529206 0.13294071 0.10694452 0.08108031 0.16515212 -0.05962504 0.14679952 0.091204815
-0.0787901 -0.09841141 -0.062326435 0.01864691 -0.07661118 -0.20735182 -0.0030297874 -0.20304568
0.04204285 -0.08576203 -0.10848486 -0.058437247 -0.18360576 0.13186598 -0.17179307 -0.12754707
-0.13330619 -0.034744646 0.13980025 0.06468357 0.010574738 0.28838894 -0.0014303637 -0.16591986
-0.038860817 0.021304285 -0.0032840492 0.1188338 0.045255363 0.0042870473 0.17303695 0.29383877
-0.020358719 0.23297223 0.19297118 -0.05160588 -0.13458607 -0.171313 -0.056182448 -0.22973803

layer2.2.bias f4 [32]
00000000: 0394 813e 155e 403d ca23 ca3b f68c 82bd
00000010: 3951 f73d 4096 153e 0686 6bbd b080 af3d
00000020: a35b 1bbd 7d35 23bd e7e9 df3d 08d6 64bd
00000030: 128c 2a3e 3b41 4abd d329 fa3d 6de8 bd3c
00000040: 7958 f23d 6ac3 c6bd 4960 f1bc 808f 15bd
00000050: d1be 8a3d 340c 7fbb b110 02bc 7c79 c7bd
00000060: a4e8 23bd acf7 843d c3e4 f2bc 793f a33b
00000070: 523a 13bd 0675 78bd 54b5 fd3d fb9f 023d
0.25308236 0.046964724 0.006168817 -0.063745424 0.12076039 0.14608097 -0.05750086 0.08569467
-0.03792919 -0.039845932 0.10933285 -0.05586818 0.16654995 -0.049378615 0.122150086 0.023182118
0.11833281 -0.09705241 -0.029464858 -0.036513805 0.067746766 -0.0038917186 -0.00793855 -0.09739968
-0.040016785 0.06492552 -0.029650098 0.0049819318 -0.03594429 -0.060658477 0.12388101 0.03189085

layer3.0.weight f4 [64, 32, 3, 3]
00000000: aea6 bfbd f428 c53c 85bc ce3d e96e 0abe
00000010: 9475 42be d568 42be e789 cf3d 9ea6 46be
00000020: fda2 b13d 2c81 d43c 2386 ed3d 10ea 68be
00000030: 5440 2ebd c385 16bd e26b 40be ab00 f53d
00000040: 0ff0 293e d06d 173d 918a fa3c 8c4f 8f3d
00000050: 7458 8ebe 5941 5c37 edc4 043e d842 4fbe
00000060: 0d63 3dbd c4ed 923d 7bbf af3b 5002 72bc
00000070: ea9d e73d 6e0b 1f3e 08c2 a53d 3a7d bc3d
00000080: 9a7d 91be 414d 68bd e073 13bc eac0 1cbe
00000090: abf4 4a3d 6573 a63d ca28 eebd d226 653d
000000a0: 1921 afbd 4457 00be bfaa 193e 3d20 40bd
000000b0: 63a7 98bc bef4 0cbe a492 e33c cdf2 80bc
000000c0: d09a ec3c 9029 123e 018f 4f3d a30e c4bd
000000d0: 10b9 dbbd 631f e6bc 76cc c23c 86ba 983e
000000e0: 5172 a93d 73b6 65be e422 12bd f400 b5bd
000000f0: a552 f8bb 6d1c f4bd 0e07 68bc 0670 0c3c
00000100: 2b90 01be f14a 9dbd 8981 2d3c 3897 823d
00000110: b3f5 6abe dae0 043e f1c2 4b3b f668 93bd
00000120: 2786 273d a6d1 8d3d 344d 343c ff76 993c
00000130: 365b 26be d814 73be a4ec 893d 4b14 21be
00000140: 3cbb 3e3d 25fb 8bbd 2b7f e5bd ef30 b63d
00000150: 0eed 2a3c 6d38 ef3c e0a2 20bc 517a 2ebd
00000160: 574c 89bd 19f9 1e3e 5975 38be 8de2 e4bd
00000170: 59aa a8be ddc1 d7bb 5a88 d33e 74ac 5cbd
00000180: a145 14be 8e7b 363e 5c81 93be 5928 f5bd
00000190: e289 2abb bdc2 ae3c e476 babd a1a2 70bc
000001a0: a65e 52bd a724 a63e 6c08 c13c e57a 8bbe
000001b0: fe29 09be 5b8e efbd 3b31 1abe 2b07 9fbd
000001c0: a142 db3c d9e5 5ebc 110a f03d 755b 17be
000001d0: ad20 d6bc 124f 813c f1f0 2b3e 28d2 30bd
000001e0: 1ca5 69bd fdfc e93d 3020 1dbe 4bb8 343e
000001f0: 22d2 693e e3eb 813e d757 75bd 7288 46bd
00000200: fca3 93be 1034 58be 5917 2fbe b15e 39be
00000210: e40e 893e 372c 173e 4032 99bd 812b 9dbe
00000220: ab46 05be e7a6 87bc 1223 583e b5b7 153d
00000230: bc17 fa3c 7aa8 7fbc 5c2c aebd fdee 4cbd
00000240: d572 183e 6326 323e 2821 89bc cc73 5b3e
00000250: 5288 2f3e 72ef c3be 8994 90be 2bb8 07be
00000260: 4145 dbbe c83c 8c3d 9522 2abe 540e c03d
00000270: 814f 11be ed30 a33d 6cc4 3b3d 258a 7e3d
00000280: f05c 1abe f316 923e dbac 523e 69a0 45bd
00000290: 79cd 33bb 3f7d 203e 9de2 ef3d f612 423e
000002a0: 0e5e 8b3e bed9 373e 1676 86bd 78d7 1a3e
000002b0: 821b e13d f60e 70be 90e2 553e eafc e03d
000002c0: de83 d1bd 832f 913d 419c 90bd 98aa 0c3d
000002d0: 5c12 5b3e dab7 e53b e600 45be a7c2 883d
000002e0: 3cf7 093e fb5b cdbd 42fa debd 0cb7 173e
000002f0: 22fd 27bd 5791 5f3d 1f26 ca3b 37c9 13be
00000300: 1f16 0b3e e937 51bc 535c 483d 3cbe 10be
00000310: 2da9 03be 5ec8 2f3d b6ca 803d 7abe 8cbd
00000320: b706 633c 190d 183e e537 f73d 7a61 f83d
00000330: 9907 083e 8547 9b3d 2a7a c3bd 510d 4dbd
00000340: 30d4 c9be 7732 9fbe a443 5f3c f647 3f3c
00000350: 18b1 953d 9517 093d adeb b6be f6c8 80be
00000360: 33a5 833d 8394 05bd ac94 dc3c 02bd 103e
00000370: c82b 973d 97c3 1b3e 98f5 babc e2b5 243e
00000380: 083c 573e 6c01 4bbe 2712 e63b 4c96 c1bd
00000390: fdd1 ac3d 8b71 423e 97f7 28be 52aa c93d
000003a0: 06f0 2bbd 8476 a23d 1c9b 03be 1a17 4d3e
000003b0: bed8 303e df83 7fbe 55c8 99be e0a9 eb3d
000003c0: 19df 9fbd ac0a 4abe da26 10be 259b 493e
000003d0: a3a4 03be 7770 923e 390a 12be 85fe dcbd
000003e0: 619d 3a3d 0b23 d9bb e1d7 07be 1b1d 073d
000003f0: 2393 1e3e 0f02 fa3c 7d3f a23d 44f9 193d
-0.093579635 0.02406738 0.10094551 -0.13518871 -0.18990165 -0.18985303 0.10133725 -0.19399497
0.08673666 0.0259405 0.1159785 -0.22745538 -0.042541817 -0.03674866 -0.18791154 0.11963018
0.16595481 0.03696996 0.030583652 0.06997594 -0.2780186 1.3128237e-05 0.12965746 -0.20240343
-0.04623704 0.071742564 0.0053634024 -0.014771059 0.113094166 0.15531704 0.08093649 0.092035726
-0.2841614 -0.0567143 -0.008999795 -0.15307966 0.04954974 0.081274785 -0.11628874 0.055945225
-0.08551235 -0.12533289 0.1500654 -0.046905745 -0.018634504 -0.13765237 0.027779885 -0.015740776
0.028882414 0.14273667 0.05067349 -0.09573104 -0.10728657 -0.028091138 0.023779135 0.29829806
0.08273757 -0.2243288 -0.035677806 -0.088380724 -0.0075782114 -0.11919484 -0.014161838 0.00857163
-0.12652652 -0.076803096 0.010589966 0.06376499 -0.2294529 0.12976399 0.0031091536 -0.07197754
0.040899422 0.06924753 0.011004735 0.0187335 -0.16245732 -0.2373842 0.06734589 -0.15730397
0.04656528 -0.068350114 -0.11205896 0.08896052 0.010432495 0.02920171 -0.009804457 -0.04259712
-0.06704014 0.1552471 -0.18013515 -0.11176024 -0.32942465 -0.0065843896 0.41314965 -0.0538754
-0.14479686 0.1782057 -0.2880963 -0.11970586 -0.0026022126 0.021333093 -0.09104708 -0.014687211
-0.051359795 0.3244984 0.023563586 -0.272422 -0.13394925 -0.11697074 -0.15057842 -0.07765039
0.02676517 -0.013604605 0.1172067 -0.14780982 -0.026138628 0.015784774 0.1679113 -0.04316917
-0.057042226 0.11425207 -0.1534431 0.17648427 0.22834066 0.2537528 -0.059898224 -0.04846997
-0.28836048 -0.2111361 -0.1709875 -0.18102528 0.26769173 0.1476296 -0.074802876 -0.30697253
-0.13015239 -0.016559077 0.21107128 0.03655215 0.030528896 -0.015604133 -0.08504555 -0.050032604
0.14887555 0.17397456 -0.016739443 0.21430892 0.17141846 -0.3826862 -0.28238323 -0.13253848
-0.42826274 0.068475306 -0.16614754 0.09377733 -0.14190485 0.07968316 0.04584162 0.062143464
-0.15074515 0.28533134 0.20573752 -0.048248682 -0.0027435704 0.15672778 0.11713145 0.18952546
0.27220196 0.17954156 -0.06565492 0.15121257 0.10991575 -0.23443207 0.20887208 0.109857395
-0.1023023 0.0708914 -0.07061053 0.03434238 0.21393722 0.007010442 -0.19238624 0.06677752
0.13473219 -0.100273095 -0.10887577 0.1481592 -0.04101289 0.054581966 0.006169095 -0.14432226
0.13582657 -0.012769678 0.048916172 -0.14135069 -0.12857504 0.042915694 0.06288664 -0.06872268
0.013856581 0.14848746 0.12071208 0.12127967 0.13284148 0.07582001 -0.09544785 -0.050061528
-0.394197 -0.3109319 0.013626967 0.011674872 0.073091686 0.033469755 -0.3572668 -0.2515332
0.064279936 -0.032612335 0.026926361 0.14134601 0.073813975 0.1521133 -0.022822186 0.16085008
0.21018994 -0.19824761 0.007021207 -0.09452495 0.084384896 0.18988626 -0.16500698 0.09846939
-0.04197695 0.07932761 -0.12852138 0.20028344 0.1727018 -0.24952649 -0.30035654 0.115070105
-0.078062244 -0.19730633 -0.1407732 0.19688089 -0.12855773 0.2860143 -0.14261712 -0.10790733
0.045560244 -0.006626492 -0.13265945 0.03298674 0.15485816 0.03051856 0.07922266 0.037591234

layer3.0.bias f4 [64]
00000000: b664 3abe c9af cc3d 0813 803e 6293 4a3e
00000010: 852a fb3c ad34 94bd 94e0 383e 07e4 4fbe
00000020: 71ce 223e f849 833d 4145 893d aedb 9abc
00000030: e5f9 463e 4a84 783e a281 0e3e 0507 853e
00000040: d5f9 27be ff5d d2bc 7dad dcbd 64fa 73bc
00000050: 50e7 c9bd 4606 0d3e 01ff 11be c544 a9bd
00000060: 70d9 0dbe ea16 323d 539d 3dbe a91b 32bc
00000070: d930 223d 497c 48be c039 473e 1baf 933d
00000080: ac11 993c a749 15bc 4c7c a93d 699d ae3c
00000090: ac53 b23d c233 803e 71d5 12be 6eec e2bd
000000a0: a4a2 0dbd 2676 623c 5c9a 083d ffe9 b9be
000000b0: 5645 b43c 3365 b7bc 4698 523d 0400 923c
000000c0: 1942 2bbe 3dde 063e 5c23 f0bb 4ca1 583d
000000d0: 204f 9f3e 9ed2 0f3e 1275 0fba 6e05 0c3d
000000e0: dab3 13bd d99d c0bc 2717 5abe ba15 993e
000000f0: 8b5a 133e 985f 57bd 86a9 243e 3d09 323e
-0.1820248 0.09994466 0.2501452 0.19782785 0.030659923 -0.072366096 0.1805442 -0.2030183
0.15899064 0.06410593 0.06702662 -0.01890358 0.19431265 0.24269214 0.13916638 0.25981918
-0.16403897 -0.025679586 -0.10775278 -0.014891241 -0.098585725 0.13771924 -0.14257433 -0.0826507
-0.13852477 0.043478884 -0.18517046 -0.0108708525 0.039597366 -0.19578661 0.19455624 0.07211133
0.018685184 -0.009111798 0.08275661 0.021315293 0.087073654 0.25039488 -0.14339234 -0.11080252
-0.034578934 0.013822114 0.033350334 -0.36311337 0.022005718 -0.022387123 0.05141475 0.017822273
-0.16724433 0.13170715 -0.007328434 0.0528882 0.31115055 0.14045188 -0.0005472462 0.034184866
-0.03606019 -0.023512768 -0.21297894 0.2989939 0.14390008 -0.0525814 0.16080293 0.17386337

layer3.2.weight f4 [64, 64, 3, 3]
00000000: beda cf3d 188b c03d b801 6f3c 5e8f c9ba
00000010: 96b4 fb3d a048 babd 4af9 fcbc 093e 08bd
00000020: bdfa df3d a473 183e 6e23 e03d f792 c53d
00000030: 0fcf bbbd 2438 8d3d c17e 1cbe 7f2c afbd
00000040: 01cf 66bc a908 dabd dd43 30be 2865 b2bd
00000050: ff22 4c3b 1f58 c2bd 513c 31bc 4c5b 91bd
00000060: 311f 7cbe 3b7e 74ba d91c eebc 6392 733d
00000070: cc9a 0d3e 6e81 fa3d b7f9 5cbe 6afb fbbb
00000080: f8b9 37be 8626 48be 342e 7ebc f685 52be
00000090: d258 c6bc c47d dc3d f789 b4bd 6e63 993d
000000a0: b3f0 4c3d c267 3a3d abb5 82bd c73e 0ebe
000000b0: 30e0 92be 1953 02be 9d56 3e3d 8f96 2fbe
000000c0: 315f b3bd 9a21 cb3d 0ec6 543e de95 7abc
000000d0: 5f12 ac3d 8c14 c7bd da87 513d 253c a5bd
000000e0: 0835 a53d 499c 183c 0e27 fa39 aaaa 8c3d
000000f0: 6143 c0bd ec10 2abc e1c7 92bd 0087 12bd
00000100: 9f93 ac3d d89d 513e 845c 053e c7bd 013e
00000110: 337d aabd 3fad abbc 6c7d 07bc e4ae 413e
00000120: 2331 57be f20f 59be 3148 dd3c b599 4ebe
00000130: 69de c3bc 9ac0 7ebe 7a45 dabd b4f6 74bc
00000140: c295 45be fff7 b3be 38c5 923b a65d 91bd
00000150: fdd7 87bd 814b a03e 9d1f 093d 9659 0ebd
00000160: 8935 17be 558c 4bbe 949c 89bd 0796 0f3e
00000170: ba97 583c bc3a 6ebc d6ce 043e a319 783d
00000180: 312c d5bd 810a 60be 34ae 493e 0a43 293c
00000190: 77a5 113e a402 f0bd 9124 3cbe 96ef 303e
000001a0: f042 b0bd 5c09 c0be 4e5b 32bd 540a 5bbd
000001b0: c1f7 87bc 3434 3ebd 24eb 933d 7a30 a5bc
000001c0: 1d3e 1b3e f558 133e 43e2 1ebe 0c82 5fbe
000001d0: c873 62bc 8c5f e7bd cac5 dbbd 1165 eabd
000001e0: 47c4 f03c b8ec 86bd 0dc2 bfbd b0ab b6bc
000001f0: 0f5f 4abd 4679 8ebd 22d9 33be e730 52be
00000200: 444a 913d abf2 24be 3eee 733d 965d 58be
00000210: 03f8 8cbb 621c 79be fb52 9dbc 6acb f93d
00000220: 0419 2e3e c81e 823d 2bde 5bbe 3d9f 16be
00000230: fbbf bfbd 96e8 353e 9f32 55bd 7b33 0fbe
00000240: 66ac 63be e827 34be d411 21be 9e67 cabc
00000250: 64e7 1d3b 81f7 babd 2228 febd 0069 1b3e
00000260: 5049 0ebe 848f 30be 6b81 77be 448c 0fbe
00000270: 63f9 39bd 598c 34be 491b 76be d38d 213e
00000280: 1d16 6cbe f513 8b3a 0f9d 153e 08d1 b5bd
00000290: 1877 11be 82a7 1a3e b102 04be 8e25 94bd
000002a0: 0df2 a0bd e8e6 473e 9d6d c5bd 46b5 583d
000002b0: 54f3 e0bd 879e 5a3d 014c 23be 073d 51be
000002c0: 2c85 e9bb 410e 5fbd 495c 7dbe 192a 863d
000002d0: 0c59 c5bc ba98 c03d b6cb 03ba d822 203e
000002e0: 2b10 b1bd 766b ab3d c331 cabc cee9 023d
000002f0: 93d2 c7bd d742 1a3c 58d0 71bb 15da 073d
00000300: 77ab 79be a290 27be 42b2 d33c a820 24be
00000310: 4f8c c2bd 8890 35be 0f92 ec3d 7831 61be
00000320: 8edb 97bd c599 943e a61d 5ebd 65b9 513d
00000330: 722d f23b 20d8 523e d293 8c3c 0ffe 88bd
00000340: 5b6b 403e 34e4 bc3d bc69 143d 31f1 1b3e
00000350: 6d9d 163e 420a 0fbd 9007 023e 3719 a3bc
00000360: 3ab1 c5bd 2e65 3dbe 0d43 c83c 6266 fabd
00000370: 7b4f abbe 3bbc 0bbe 075d adbb b221 cabc
00000380: 6a7d 16be 8da4 553d 5ddf 3cbe 3750 03be
00000390: e544 a6bd 2260 cebd 490f f0bc 844f db3d
000003a0: 4241 45bd 0057 e63d b75e 6d3e 40b5 92bd
000003b0: 36ee 9dbe b2e3 37bd 80cb cbbe 6b64 a13b
000003c0: 2c9e 5cbc 50af 3ebe 7b52 b13d cfe0 f33d
000003d0: 3434 e7bd c1a5 ddbd 3e61 03be 3a6b 5abe
000003e0: e2d4 513d d6ac 93bb 1d77 823d 0c5c f73d
000003f0: 24ba b63c a28d 2a3e ded8 713e 4acb a3bd
0.10149144 0.0940153 0.014587812 -0.001537781 0.122903034 -0.09095883 -0.030880589 -0.033262286
0.109364964 0.14887863 0.10944258 0.09647172 -0.09170353 0.068954736 -0.15282728 -0.08553409
-0.0140874395 -0.10646183 -0.17213388 -0.087107 0.003114879 -0.09489464 -0.010817603 -0.070974916
-0.24621274 -0.0009326671 -0.02906649 0.059465777 0.13828582 0.12231718 -0.21579634 -0.007689883
-0.17942035 -0.19545946 -0.015513945 -0.20558915 -0.024212275 0.107661754 -0.08815377 0.07489668
0.050034236 0.045509107 -0.06382307 -0.13891135 -0.28686666 -0.12727012 0.04646932 -0.17147277
-0.08758391 0.09918518 0.20778677 -0.01529452 0.084019415 -0.09720716 0.05115495 -0.08068112
0.080667555 0.009314605 0.00047712814 0.06868489 -0.093878515 -0.010380011 -0.0716703 -0.035773277
0.08426594 0.20470369 0.13023573 0.1267005 -0.08324661 -0.020956634 -0.008269649 0.18914372
-0.21014838 -0.21197489 0.027011963 -0.20175822 -0.023909764 -0.24878159 -0.10657783 -0.014951397
-0.1929541 -0.35150144 0.0044790767 -0.0709794 -0.06632993 0.31307605 0.033477414 -0.034753405
-0.14766516 -0.19877751 -0.06719318 0.14022075 0.013219768 -0.014540371 0.12969527 0.060571324
-0.104088195 -0.21879007 0.1969536 0.010330925 0.14223276 -0.11719254 -0.18373324 0.17278895
-0.08606517 -0.3750714 -0.043544106 -0.053476647 -0.01659763 -0.046436504 0.07222584 -0.020164717
0.15160413 0.14389403 -0.15516 -0.21826953 -0.01382155 -0.11297521 -0.10731085 -0.11445058
0.029390467 -0.06588119 -0.09363184 -0.022298664 -0.04940706 -0.06956725 -0.17563298 -0.20526467
0.07094243 -0.16108195 0.059553377 -0.2112945 -0.0043020262 -0.24327233 -0.019204607 0.12197001
0.1700173 0.06353527 -0.21471469 -0.14709182 -0.09362789 0.17764506 -0.05205023 -0.13984482
-0.22233734 -0.17593348 -0.15729457 -0.024707612 0.0024094218 -0.09129239 -0.124099985 0.15176773
-0.13895154 -0.17242247 -0.24170463 -0.14018351 -0.04540385 -0.17631663 -0.24033846 0.15776758
-0.2305531 0.0010610806 0.14610694 -0.0887776 -0.14205587 0.15102962 -0.12891652 -0.072337255
-0.078586675 0.19521677 -0.09640048 0.05290725 -0.10983911 0.05337384 -0.15946962 -0.20433436
-0.007126471 -0.054456953 -0.24742235 0.06550998 -0.024090312 0.0940413 -0.0005027609 0.15638292
-0.08645662 0.08370106 -0.024681931 0.031961255 -0.09756961 0.00941535 -0.0036897864 0.033166964
-0.24381815 -0.16363767 0.025841836 -0.16028082 -0.09499418 -0.17730916 0.11551296 -0.21991527
-0.074149236 0.29023567 -0.054227494 0.051202197 0.0073906714 0.20590258 0.01716033 -0.06689083
0.18790953 0.09223214 0.03623365 0.15228726 0.1470849 -0.034921892 0.12698197 -0.019909484
-0.09652944 -0.18495628 0.024446035 -0.12226559 -0.33459076 -0.13646023 -0.0052906307 -0.02467427
-0.14696279 0.05215888 -0.18444581 -0.12823568 -0.08118609 -0.1007693 -0.029304164 0.10708526
-0.048157938 0.11247063 0.23180662 -0.07163477 -0.30845803 -0.04489488 -0.39803696 0.004925301
-0.0134654455 -0.18621564 0.0865831 0.11908113 -0.11289254 -0.10822631 -0.12830064 -0.21329966
0.05122841 -0.0045066876 0.06370375 0.120781034 0.022305556 0.16655591 0.23617885 -0.07997759

layer3.2.bias f4 [64]
00000000: 405c 0f3d 8d36 b83c 9f9b f1ba 2687 e63d
00000010: 41e7 5ebd d20d 0c3e 4334 76bd 9082 3c3e
00000020: daa4 2a3c 2a6a a53d 4c33 023e c909 a83d
00000030: e88a c93d 1dbe 87bd e241 493d 50a8 c4bc
00000040: 853f d3bc 1269 20be 6176 00bd 3f96 9e3d
00000050: 8020 6fbd 10b5 74bd 029b a93b d50d a9bd
00000060: db90 cfbc e90b 71be e23c 7dbd 39fe e8bd
00000070: 23e9 b5bd 808c 0b3e f4f1 323e e413 43be
00000080: 8441 66bd 1d74 083e 4f0b 453d 3cea 03bc
00000090: b9af 113e 3925 1c3e 3e07 52bd cbb9 813d
000000a0: e82b 76bd 1d17 163e 93f2 14be 66e8 78bd
000000b0: 6683 15be c427 d63b 122e 353e 9293 34bc
000000c0: ec30 d2bc f8ae 2f3c 7dcf 99bd 0552 a23d
000000d0: 0e0e 0ebd 7846 803d 7266 51bd 025e 3cbd
000000e0: 1d2a 3f3d 0715 953b f9fe bc3d 0fb5 1bbe
000000f0: 913c acbd bcf7 82bd 7237 193e 6c19 0b3e
0.035000086 0.02248695 -0.001843322 0.11256246 -0.05441976 0.13677147 -0.060108434 0.1840918
0.01041528 0.0807689 0.1271488 0.08204991 0.098409474 -0.06628058 0.049135096 -0.024006039
-0.025787124 -0.15665081 -0.031362895 0.07743501 -0.058380604 -0.059742987 0.005175949 -0.082545914
-0.025337627 -0.235397 -0.06182564 -0.11376614 -0.08882358 0.13627815 0.1747511 -0.19050556
-0.056214824 0.13325544 0.048106488 -0.008051451 0.14227189 0.15248574 -0.051276438 0.06334265
-0.060100466 0.14657255 -0.1454566 -0.060768507 -0.14600906 0.006535502 0.17693356 -0.011021512
-0.025658093 0.010722868 -0.075102784 0.079258 -0.034681372 0.06263441 -0.05112309 -0.04598809
0.04667102 0.004549626 0.0922832 -0.15205787 -0.084099896 -0.06394908 0.14962557 0.13583916

layer4.0.weight f4 [128, 1024]
00000000: a9eb b0bd b9e9 c9bd c98b 833d 53f5 ccbd
00000010: 860d 38bb a115 b7bd b5ad 48bd ccad 4e3d
00000020: fcd9 d9bc b6f3 9abb a7ac 3abd 5776 8b3b
00000030: 1778 a73b 6299 46bd 3f06 e3bc 25f7 bcbd
00000040: 6d4a 39bd f538 013b def5 a5bd 2983 11be
00000050: 8f42 91bd f5f2 c8bc 7c66 87bd cae7 a1bd
00000060: 23c9 4d3d 20d6 2f3b 9054 91bd 5890 25bb
00000070: 83d9 b7bc b588 b13c 7a44 7ebd bd95 be3d
00000080: b11d d9bd e68a 40bd 21c9 453e 5dd4 c6ba
00000090: 9694 d83c 43d0 043e a13c cfbc f6b6 8cbd
000000a0: 4a04 90bc 47c4 403d b2ea b2bd c8d0 d5bc
000000b0: b866 acbc aae4 02bd 50f3 7ebc 188d de3c
000000c0: 2fe6 c7bd bbad 41bd f246 36bc 56e3 0abe
000000d0: d1d6 64bd 7a92 69bd 616d 11be 686f be3c
000000e0: fa43 dabd 414b d1bb df80 60bd 3a08 823a
000000f0: ee7f f83b 2edb 01bd 435b 98bd 3d61 3abe
00000100: 32d3 8ebc 70cc 023e 1d64 33bc d29c 98bd
00000110: 77dd 73bd f4b0 39bc e357 143e 6173 bbbd
00000120: 3844 ab3c 9fea 11be 4bf8 303d 12e0 43bd
00000130: 01d9 5a3d e2b8 65bd bd24 943d 9dad 4b3d
00000140: 13d8 e23b 99f2 0b3d e451 a33d 79fd 3b3c
00000150: 4541 9d3c 09c6 a13c 8013 8d3c 7be1 d53c
00000160: eea6 7bbd 0eb0 00be b982 d43d 4177 d13c
00000170: 8932 32bd b281 d7bb 5e61 0fbd 5215 1fbc
00000180: e415 75bd 10d6 25bd d018 94bd 2a8d 333c
00000190: 39dd f7b8 791f 81bd 4793 873d c693 373d
000001a0: 8798 97bd 7461 04bd 50e4 38bd 458c 11bd
000001b0: 8bfa b8bd 22af 2c3d f558 83bb a3fd db3c
000001c0: c926 683d c503 0e3d 9fac c33c 75e2 353b
000001d0: 556a 8f3d 1d2a bbbc d651 d4bc d5bd aabd
000001e0: 74d7 3ebc 5e59 bd3d d0d5 b53d 8ada 37bd
000001f0: f990 243d 9834 36bd e635 bfbd 7fa7 d8bd
00000200: d15e 053d 0019 2d3d 23d5 d73d 8fa4 d1bc
00000210: be9d 29bd fda3 c53d 2940 ab3d 3394 643c
00000220: 589d aebd 72de f33d 4479 65bd 163e 05bc
00000230: 8c7a 7cbd ff93 1c3e abe8 1dbe dca7 94bd
00000240: 5030 4a3d 354f 1cbd ed6e 70bd 385e ccbd
00000250: 90c6 1b3d 82cb a03c b19c b23b 1524 e2bb
00000260: 87d4 94bd 1c22 34bd 43e1 96bd 1561 9ebd
00000270: 4f9a 023d 3cf5 88bc 39fa c9bc 259e b439
00000280: 47c9 073c d5da 29bd 119c bcb9 bb9c 6cbd
00000290: 0354 ccbd 1b92 5b3d 01a0 d73d f8fb 4cbd
000002a0: 37a2 593d 3588 df3d 5e9a 443c f589 923c
000002b0: b33b 3fbd dec4 273b 6e97 debb 206f 1dbd
000002c0: 6ffb f9bd 5324 cebd 322e 9ebd ba95 d1bd
000002d0: 6468 f1bc ccc6 94bc 0c99 d33c 3406 4fbd
000002e0: 7fe0 71bd ef49 38be 55f2 88bd 0967 073d
000002f0: f573 8cbb 67ec 0ebe cba6 92bd 169d 483c
00000300: 4521 b33d 29d7 bf3d 5e42 863d 476f 5a3d
00000310: 4a09 94bd 81dc ad3d 8284 5abd e979 86bc
00000320: 6215 81bd c246 25be 9a8b 4b3c 9877 163d
00000330: 19e7 eabd ea51 c2bd d03c 58bd 6f5a bbbc
00000340: 187e 31bd 8ae9 1d3c d296 0f3d c1b9 34bd
00000350: 836c 47bc cdc0 44bd aac0 0ebd 9332 98bd
00000360: dfaf 133d ae60 64bd 2768 17be 60a0 5e3c
00000370: 6dee cabd 8ba2 4bbd 075a b1bd 407a 3dbd
00000380: d6ec edbd 45e0 c7bc 04ae 8abd 00f3 c9bd
00000390: 258b 7cbd c816 a8bd a361 27be 8f46 0abd
000003a0: 7a03 a9bc a13a 80bd 99ec c5bd 0252 37be
000003b0: ed35 8f3c c813 3ebe d56c 58bd 8f7c 19bc
000003c0: da78 5abe 83f9 cabd 54b7 ed3c 3245 30bd
000003d0: 4d2f 713d 218d 9bbd ac63 593d 605c 3cbd
000003e0: a8a1 7f3d 05ef f23c d28e 73bd fcdf 38bd
000003f0: 27f1 aebc e735 8a3d bf01 bdbd 6b80 1fbd
-0.086386986 -0.09859032 0.06423146 -0.100077294 -0.0028084232 -0.08939672 -0.048993785 0.050458714
-0.0265932 -0.0047287596 -0.04557481 0.0042560506 0.0051107514 -0.04848612 -0.02771294 -0.092268266
-0.045236994 0.0019717787 -0.08103536 -0.1421019 -0.07092773 -0.024529913 -0.06611344 -0.079055384
0.050240647 0.002683051 -0.07096207 -0.0025263038 -0.022442585 0.021671632 -0.062077023 0.09305904
-0.10601366 -0.047007464 0.19315006 -0.001516949 0.026438039 0.1297007 -0.025297465 -0.068708345
-0.01758017 0.047062185 -0.08736171 -0.026100531 -0.021045074 -0.031956352 -0.01556094 0.027166888
-0.09760701 -0.047284823 -0.011125313 -0.13563284 -0.055868927 -0.057024457 -0.14201881 0.023246482
-0.10657497 -0.006387145 -0.0548104 0.0009920665 0.00758361 -0.031703167 -0.07439282 -0.18201156
-0.01743469 0.12773299 -0.010949162 -0.07451786 -0.059537377 -0.011333693 0.14486651 -0.09152866
0.020906553 -0.14249657 0.04320554 -0.047821112 0.053429607 -0.05608452 0.0723357 0.049726117
0.0069227307 0.034166906 0.07974604 0.011474007 0.019196162 0.01974775 0.017221212 0.026108494
-0.061438493 -0.1256716 0.10376496 0.02556956 -0.043505225 -0.00657674 -0.035004966 -0.009709673
-0.05983533 -0.04048735 -0.07231295 0.010958949 -0.00011819084 -0.06304831 0.06619888 0.044818662
-0.07402139 -0.0323195 -0.04513961 -0.035534162 -0.09032162 0.042159207 -0.0040084072 0.026854342
0.056677613 0.034671564 0.023886023 0.0027753387 0.07002703 -0.02284723 -0.025917929 -0.08336989
-0.011648048 0.09245561 0.08878672 -0.04488615 0.04017732 -0.04448375 -0.09336452 -0.10578822
0.032561127 0.04226017 0.105386995 -0.025591163 -0.0414102 0.09650419 0.08361847 0.013951349
-0.08526105 0.119076625 -0.05602385 -0.008132478 -0.061640307 0.15290831 -0.15420787 -0.07258579
0.04936248 -0.038161475 -0.058699537 -0.09978908 0.03803116 0.01962829 0.005450808 -0.006901274
-0.07267099 -0.04397784 -0.07367184 -0.07733361 0.03188544 -0.0167185 -0.024655448 0.00034450102
0.008287734 -0.04146846 -0.00035974433 -0.057766657 -0.099769615 0.053606134 0.10528565 -0.050044984
0.053133216 0.10914651 0.011999695 0.017888049 -0.046687793 0.002559952 -0.006792954 -0.038436055
-0.1220616 -0.10065522 -0.07723655 -0.10233636 -0.029468723 -0.0181612 0.025829814 -0.050543025
-0.059051987 -0.17996953 -0.06686846 0.033057246 -0.004286284 -0.13957368 -0.071607195 0.012244483
0.0874658 0.093672104 0.06555627 0.05332878 -0.07228334 0.084893234 -0.053349026 -0.016415553
-0.063029066 -0.16140273 0.01242342 0.036735147 -0.1146986 -0.0948828 -0.05279237 -0.02287027
-0.043333143 0.0096382 0.035055943 -0.04412246 -0.012171867 -0.04803543 -0.034851708 -0.07431521
0.036056396 -0.055756263 -0.14785825 0.013588041 -0.09908757 -0.04971556 -0.086597495 -0.046259165
-0.116174385 -0.024398932 -0.06771472 -0.09860802 -0.061656136 -0.0820747 -0.16345839 -0.033758696
-0.02063154 -0.062611826 -0.09664268 -0.17902377 0.017481769 -0.18562233 -0.052838165 -0.009368076
-0.21335164 -0.09910872 0.029018082 -0.04303474 0.058883 -0.075952776 0.05307357 -0.045986533
0.062410027 0.029654989 -0.059462376 -0.045135483 -0.021355225 0.06748562 -0.09228849 -0.03894083
